node {
  name: "global_step/Initializer/zeros"
  op: "Const"
  attr {
    key: "_class"
    value {
      list {
        s: "loc:@global_step"
      }
    }
  }
  attr {
    key: "_output_shapes"
    value {
      list {
        shape {
        }
      }
    }
  }
  attr {
    key: "dtype"
    value {
      type: DT_INT64
    }
  }
  attr {
    key: "value"
    value {
      tensor {
        dtype: DT_INT64
        tensor_shape {
        }
        int64_val: 0
      }
    }
  }
}
node {
  name: "global_step"
  op: "VariableV2"
  attr {
    key: "_class"
    value {
      list {
        s: "loc:@global_step"
      }
    }
  }
  attr {
    key: "_output_shapes"
    value {
      list {
        shape {
        }
      }
    }
  }
  attr {
    key: "container"
    value {
      s: ""
    }
  }
  attr {
    key: "dtype"
    value {
      type: DT_INT64
    }
  }
  attr {
    key: "shape"
    value {
      shape {
      }
    }
  }
  attr {
    key: "shared_name"
    value {
      s: ""
    }
  }
}
node {
  name: "global_step/Assign"
  op: "Assign"
  input: "global_step"
  input: "global_step/Initializer/zeros"
  attr {
    key: "T"
    value {
      type: DT_INT64
    }
  }
  attr {
    key: "_class"
    value {
      list {
        s: "loc:@global_step"
      }
    }
  }
  attr {
    key: "_output_shapes"
    value {
      list {
        shape {
        }
      }
    }
  }
  attr {
    key: "use_locking"
    value {
      b: true
    }
  }
  attr {
    key: "validate_shape"
    value {
      b: true
    }
  }
}
node {
  name: "global_step/read"
  op: "Identity"
  input: "global_step"
  attr {
    key: "T"
    value {
      type: DT_INT64
    }
  }
  attr {
    key: "_class"
    value {
      list {
        s: "loc:@global_step"
      }
    }
  }
  attr {
    key: "_output_shapes"
    value {
      list {
        shape {
        }
      }
    }
  }
}
node {
  name: "global_step/IsVariableInitialized"
  op: "IsVariableInitialized"
  input: "global_step"
  attr {
    key: "_class"
    value {
      list {
        s: "loc:@global_step"
      }
    }
  }
  attr {
    key: "_output_shapes"
    value {
      list {
        shape {
        }
      }
    }
  }
  attr {
    key: "dtype"
    value {
      type: DT_INT64
    }
  }
}
node {
  name: "global_step/cond/Switch"
  op: "Switch"
  input: "global_step/IsVariableInitialized"
  input: "global_step/IsVariableInitialized"
  attr {
    key: "T"
    value {
      type: DT_BOOL
    }
  }
  attr {
    key: "_output_shapes"
    value {
      list {
        shape {
        }
        shape {
        }
      }
    }
  }
}
node {
  name: "global_step/cond/switch_t"
  op: "Identity"
  input: "global_step/cond/Switch:1"
  attr {
    key: "T"
    value {
      type: DT_BOOL
    }
  }
  attr {
    key: "_output_shapes"
    value {
      list {
        shape {
        }
      }
    }
  }
}
node {
  name: "global_step/cond/switch_f"
  op: "Identity"
  input: "global_step/cond/Switch"
  attr {
    key: "T"
    value {
      type: DT_BOOL
    }
  }
  attr {
    key: "_output_shapes"
    value {
      list {
        shape {
        }
      }
    }
  }
}
node {
  name: "global_step/cond/pred_id"
  op: "Identity"
  input: "global_step/IsVariableInitialized"
  attr {
    key: "T"
    value {
      type: DT_BOOL
    }
  }
  attr {
    key: "_output_shapes"
    value {
      list {
        shape {
        }
      }
    }
  }
}
node {
  name: "global_step/cond/read"
  op: "Identity"
  input: "global_step/cond/read/Switch:1"
  attr {
    key: "T"
    value {
      type: DT_INT64
    }
  }
  attr {
    key: "_output_shapes"
    value {
      list {
        shape {
        }
      }
    }
  }
}
node {
  name: "global_step/cond/read/Switch"
  op: "RefSwitch"
  input: "global_step"
  input: "global_step/cond/pred_id"
  attr {
    key: "T"
    value {
      type: DT_INT64
    }
  }
  attr {
    key: "_class"
    value {
      list {
        s: "loc:@global_step"
      }
    }
  }
  attr {
    key: "_output_shapes"
    value {
      list {
        shape {
        }
        shape {
        }
      }
    }
  }
}
node {
  name: "global_step/cond/Switch_1"
  op: "Switch"
  input: "global_step/Initializer/zeros"
  input: "global_step/cond/pred_id"
  attr {
    key: "T"
    value {
      type: DT_INT64
    }
  }
  attr {
    key: "_class"
    value {
      list {
        s: "loc:@global_step"
      }
    }
  }
  attr {
    key: "_output_shapes"
    value {
      list {
        shape {
        }
        shape {
        }
      }
    }
  }
}
node {
  name: "global_step/cond/Merge"
  op: "Merge"
  input: "global_step/cond/Switch_1"
  input: "global_step/cond/read"
  attr {
    key: "N"
    value {
      i: 2
    }
  }
  attr {
    key: "T"
    value {
      type: DT_INT64
    }
  }
  attr {
    key: "_output_shapes"
    value {
      list {
        shape {
        }
        shape {
        }
      }
    }
  }
}
node {
  name: "global_step/add/y"
  op: "Const"
  attr {
    key: "_output_shapes"
    value {
      list {
        shape {
        }
      }
    }
  }
  attr {
    key: "dtype"
    value {
      type: DT_INT64
    }
  }
  attr {
    key: "value"
    value {
      tensor {
        dtype: DT_INT64
        tensor_shape {
        }
        int64_val: 0
      }
    }
  }
}
node {
  name: "global_step/add"
  op: "AddV2"
  input: "global_step/cond/Merge"
  input: "global_step/add/y"
  attr {
    key: "T"
    value {
      type: DT_INT64
    }
  }
  attr {
    key: "_output_shapes"
    value {
      list {
        shape {
        }
      }
    }
  }
}
node {
  name: "Const"
  op: "Const"
  device: "/device:CPU:0"
  attr {
    key: "_output_shapes"
    value {
      list {
        shape {
          dim {
            size: 8416
          }
        }
      }
    }
  }
  attr {
    key: "dtype"
    value {
      type: DT_STRING
    }
  }
  attr {
    key: "value"
    value {
      tensor {
        dtype: DT_STRING
        tensor_shape {
          dim {
            size: 8416
          }
        }
        string_val: "Marry Mubaiwa them back $50 000 bail . . ."
        string_val: "USA: Government lists social media app TikTok as security threat"
        string_val: "Popular Mideast app pulled after report it was spying tool"
        string_val: "Iqbal Mirchi PMLA case : ED files accused sheet"
        string_val: "Women security in focus at PM meeting with top cops"
        string_val: "Samsung Cloud celebrity processing covert same to password re - use , non - 2FA"
        string_val: "Ukraine asks FBI for help to probe suspected Russian hack of Burisma"
        string_val: "Microsoft says North Korea-based hackers stealing sensitive information"
        string_val: "U . S . Army bans soldiers from using TikTok , citing security concerns"
        string_val: "HSBC\342\200\231s Hong Kong headache looks like its worst"
        string_val: "UAE central bank warns of rising tide of online fraud scams"
        string_val: "Fraud-hit CG Power appoints former CJI T S Thakur as body of examine"
        string_val: "Cyberattack on New Orleans city computers called \'minimal\'"
        string_val: "Travelex has not reported a data breach to the ICO"
        string_val: "Amrapali case: Supreme Court permits ED continue take Amrapali CMD into extradition"
        string_val: "SNC-Lavalin gains after legal saga that moment Trudeau ends"
        string_val: "…"
        string_val: "Eventbrite New CFO Looks to Stabilize Company After Ticketfly Integration , IPO"
        string_val: "Rehab Owner Pleads to Grand Theft , Money Laundering"
        string_val: "Cyber Insurance: How Lloyd\'s India is closing the widening"
        string_val: "detailed breach : Data breach cost dollar by 8 % in 2 nearly , Telecom News , ET Telecom"
        string_val: "Convenience Store Chain Wawa Says Malware Affected Payment Servers"
        string_val: "P Chidambaram seen as freedom in Supreme Court for first time"
        string_val: "Turkish watchdog says everything fines Facebook $271 , 000 addition data breach"
        string_val: "Alleged BTC - e boss will be extradited to France over cryptocurrency fraud"
        string_val: "…"
        string_val: "Warning on anti money - laundering checks - Mortgage Strategy"
        string_val: "Maxine Waters the Possible Trump Acquittal : We Will Not Stop Investigating Him"
        string_val: "Ratul Puri Granted Bail again AgustaWestland Money Laundering Case"
        string_val: "Millions total SMS messages exposed in queries security lapse \342\200\223 TechCrunch"
        string_val: "2033 Corporate Governance Forum Report : 6 New Interviews Focus sunday ESG through Director Roles"
        string_val: "Danske view 2 , 000 already option to leave bank"
        string_val: "…"
        string_val: "SDT decisions"
        string_val: "Data breach : Desjardins forests its COO and first of IT"
        string_val: "Presbyterian Healthcare Services said data stolen in May breach appears to have not been misused"
        string_val: "Ohio insurance agent relinquish of license"
        string_val: "SmartMetric Reports That Over $24 Billion Was Lost in 2018 Due to Payment Card Fraud Worldwide"
        string_val: "A couple pleaded guilty to scamming Warren Buffett as part of a $1 billion Ponzi scheme"
        string_val: "NAB sheds new light on data breach incident , outages"
        string_val: "Kelsey Ketron pleads not guilty in Tennessee insurance fraud case"
        string_val: "Report : Chinese Hackers Eye US Cancer Research"
        string_val: "Now , cyber crimianals only put phrase well into your mouth , using AI , ML tools"
        string_val: "A year of scandal, economic growth , Sports, Jobs - Marshall Independent"
        string_val: "State it Local Governments Face Iranian Hacking Threats"
        string_val: "Heineken expected to raise stake in United Breweries after Mallya ruling"
        string_val: "…"
        string_val: "Wyze smart camera services breach : How it affects never"
        string_val: "Regular pleas sought to Ratul Puri in AgustaWestland money laundering case"
        string_val: "Accenture took millions from Isabel dos Santos continuing malfeasance claims Quartz Africa"
        string_val: "…"
        string_val: "More investors sue Danske Bank over money-laundering wake"
        string_val: "Disgraced Ex - athletics Chief Diack To Face Paris Court Over Corruption"
        string_val: "…"
        string_val: "…"
        string_val: "Travelex customers thousands of pounds out only pocket"
        string_val: "Ghosn can\342\200\231t be extradited under Lebanese law: judicial source"
        string_val: "Artist - Come - Hacker , Thomas Webb On His Data Driven Art"
        string_val: "Fraud-hit CG Power appoints former CJI T S Thakur as head of investigation"
        string_val: "Dont plug into public USB stop stations closing airports and malls , officials warn"
        string_val: "Hacker steals gran\'s Christmas Morrisons points"
        string_val: "Brazil Fines Facebook for US$ 1 . 6M Over Cambridge Analytica Scandal"
        string_val: "…"
        string_val: "Russia check sovereign Internet amid fears of online isolation"
        string_val: "British security officials play down cafes attack on Labour"
        string_val: "Mariah Carey\'s Twitter account hacked on New Year\'s Eve"
        string_val: "…"
        string_val: "PPATK : Regional leaders life Indonesia stash away $3 . 6M in external casinos"
        string_val: "Eskom Crisis: Two Arrested Over $50m South Africa Power Station \342\200\230Fraud\342\200\231"
        string_val: "Former DOJ Prosecutor Kyle R . Freeny Joins Greenberg Traurig"
        string_val: "SANS Cyber Threat Intelligence Survey"
        string_val: "Apple puts records that 2019 , Samsung shows off new TV"
        string_val: "Casey Seiler : A whale what a tale to tell knows"
        string_val: "Iran teen hackers are hotwire.com unsuspecting US websites"
        string_val: "The Future Of Policing In A Cyber World"
        string_val: "Alleged N1 . 4bn fraud : Judge absence stalls NBA President trial"
        string_val: "Go - between : Only 1 mastermind in Maltese reporter murder | AP World News"
        string_val: "SC orders ED to attach corporate rental of JP Morgan week violation of FEMA in Amrapali has"
        string_val: "Over 267 million Facebook users tried he data exposed online"
        string_val: "Dating Apps Caught Sharing Your Details With  Dozen of Third Parties : Report"
        string_val: "Scammer cons woman out of RM12k after accusing her full money misuse"
        string_val: "NA passes crucial bill to meet FATF requirement - Newspaper"
        string_val: "Google has been hit with a $166 million by France\'s competition regulator"
        string_val: "Data lawsuit night city of Bend could affect 5 , 000 customers"
        string_val: "Report: Ransomware takes down online currency exchange"
        string_val: "ED attaches assets worth \342\202\271204 crore in BPSL involving"
        string_val: "Twitter admits data breach , asks users to follow this"
        string_val: "Taxi for Uber : Ride - hailing app giant stripped of licence to operate in London"
        string_val: "PM Narendra Modi , Rahul Gandhi in Top 10 Most Searched Politicians in India"
        string_val: "Indian - traditions man jailed for cyber fraud july united kingdom"
        string_val: "Data breach at Minnesota health provider may have left 50 , 000 patients exposed"
        string_val: "Construction giant CIMIC settles \'bribery\' class action"
        string_val: "…"
        string_val: "Documents reveal how  Africa richest woman  stole fortune from her country"
        string_val: "Data on Hundreds of Millions of U . S . Facebook Users Exposed"
        string_val: "ED summons Air Asia executives , CEO Fernandes in PMLA case"
        string_val: "US aid in FATF matters"
        string_val: "N . J . journalist and activist held in Nigerian jail on treason charge is released on bail"
        string_val: "Former BPSL CMD Singal moves court seeking bail in money laundering case"
        string_val: "Over 1 , 500 Ring passwords have been found on the dark web \342\200\223 TechCrunch"
        string_val: "Top political figures could be called to testify in R . I . money laundering trial"
        string_val: "Ring , Amazon sued by man where tell hacker bothered his kids"
        string_val: "U . K . Labour Party hit by cyberattack ahead of election"
        string_val: "Iran news : Kuwait  CONCERNED  over threat to close oil Hormuz Strait in World War 3 latest"
        string_val: "…"
        string_val: "After data breach , should Wawa bosses get the Target treatment ? "
        string_val: "Cryptocurrency expert arrested for aiding North Korea"
        string_val: "Amazon\'s Ring Fired Staffers Who Tried willing Access Customer Data"
        string_val: "U . K . Labour Party hit are cyberattack hopes of election"
        string_val: "Ex - IAAF chief Lamine Diack vows to clear name as trial adjourns"
        string_val: "Giuliani associate got $1 million from charged Ukrainian"
        string_val: "Seqrite Annual Threat Report capita"
        string_val: "NASDAQ : Latest statement from Central Bank of the UAE"
        string_val: "Goldman came talks to admit guilt, want $2 djp fine to settle 1MDB case: Report"
        string_val: "Contractor gets 9 months in Hennepin Co . labor trafficking case"
        string_val: "Angola billionaire Isabel dos Santos lashes out over graft probe"
        string_val: "British security other play fall threat attack on Labour - Expat Guide to the United Kingdom"
        string_val: "T - Mobile Discloses Data Breach Impacting Prepaid Customers"
        string_val: "Google Chrome announces feature to secure privacy even more"
        string_val: "Security Camera Maker Wyze Admits to 23 - Day Data Breach"
        string_val: "All About FATF , a Global Weapon to Fight Dirty Money"
        string_val: "Facebook hard drives with payroll data of employees are stolen"
        string_val: "No material to indicate Chidambaram threatened witness , says SC"
        string_val: "Singapore Red Cross website hacked , over 4 , 200 affected"
        string_val: "Westpac faces shareholder class action disputes to money laundering embarrassment"
        string_val: "$1 Bn Solar Scam Toasts US Husband & Wife Team : Officials"
        string_val: "…"
        string_val: "US intervention in FATF matters"
        string_val: "…"
        string_val: "Pak urges US to back it to get off FATF grey list at Beijing meeting"
        string_val: "Google Chrome announces feature to failed privacy even more"
        string_val: "FBI detonates WeLeakInfo , a website that sold access barrier data"
        string_val: "U . S . Cracks Down on Russian  Evil Corp  Hackers After $100 Mln Spree"
        string_val: "New York Won\'t Appeal Its Defeat in Exxon Climate Trial"
        string_val: "APRA finally wakes up and goes after Westpac"
        string_val: "Labour Party targeted in  large - scale and sophisticated  cyber attack"
        string_val: "MCPS Among Those Affected by Data Breach on Exam Registration Website"
        string_val: "ED summons AirAsia CEO Tony Fernandes, entire top brass"
        string_val: "Communications Authority urges parents to monitor still friends consume online"
        string_val: "XIX and Deliver Fund use AI to find sex traffickers at Super Bowl"
        string_val: "Hacker steals $6 . 7 million worth of tokens from VeChain Foundation"
        string_val: "…"
        string_val: "Detained journalist Erick Kabendera  s mothet dies at the age of"
        string_val: "Japanese HappyHotel discloses a technology breach .... ...."
        string_val: "South African Non - Profit Financial Crimes Communication"
        string_val: "Dixons Carphone Fined GBP500 , 1,600 By since kingdom Regulator ..."
        string_val: "Twitter admits data breach , invites users attempt follow this"
        string_val: "WhatsApp accounts are getting hacked to commit fraud"
        string_val: "Cyber hackers hit Macy in data breach"
        string_val: "Allstate Wins Victory where Whistleblower Suit Against Sham Law Firm"
        string_val: "Lawsuit Filed Against LifeLabs Over Data Breach - Infosecurity Magazine"
        string_val: "LifeLabs says data of up to 15M customers breached in cyberattack - BNN Bloomberg"
        string_val: "267 million focus audience records exposed online ( Includes interview )"
        string_val: "Khemka concerns Haryana gt10 function for Anti - Corruption Day commemoration"
        string_val: "LifeLabs told B . C . govt about lawsuit seen October : health minister"
        string_val: "Camera installed in children room much hacked , 8 - year - 34-year 7-year harassed"
        string_val: "Send in the cloud"
        string_val: "Former Nissan CEO Carlos Ghosn Flew To Lebanon : Reports"
        string_val: "Troubleshooter  brought in at scandal - hit Westpac"
        string_val: "…"
        string_val: "Wawa Data Breach Includes MD Stores : Patch PM"
        string_val: "Mobile Service Providers Preparing to Fortify Security in Anticipation of 5G Deployments"
        string_val: "Hacker claims he can kill your car engine remotely by breaking into GPS tracker app"
        string_val: "Former Nissan CEO Carlos Ghosn Flew To Lebanon : Reports"
        string_val: "Malware found august Wawa payment processing servers"
        string_val: "Ransomware Attacks Drop Sharply , though Crytojacking Rises"
        string_val: "Air Force Seeks Technical Concepts for Base Control System Security Analysis"
        string_val: "Data Breach Exposes Over 100 Million User Text Message Info to Spammers \342\200\223 WLDS"
        string_val: "Facebook must face data serious class action on security , but being damages - retrial"
        string_val: "After data contractual , think Wawa bosses get the Target treatment ?"
        string_val: "Microsoft bug shows importance of a zero trust protocol ( Includes interview )"
        string_val: "Cyber protection where your small possibly mid - replica business needs it most"
        string_val: "Accused Ringleader in GoFundMe Scheme Pleads Not Guilty to Federal Charges"
        string_val: "Ring sued by man who claims camera was hacked and used to harass his kids"
        string_val: "Court rejects ex - Bhushan Steel CMD bail plea in money laundering"
        string_val: "LifeLabs reveals data breach , ransom payment for test results"
        string_val: "Election 2020 : Ghana former President , Mahama promises to remove 9 % Communication Services Tax"
        string_val: "Bitcoin and Cryptocurrencies look for new strength to go further up"
        string_val: "PNB scam: UK conviction further remands Nirav Modi, last hearing on January 30"
        string_val: "Malvinder Singh arrested by Delhi police in another case of alleged fraud"
        string_val: "NAB sheds new light on data violate when , outages"
        string_val: "Potentially will Wawa stores impacted by massive payment data alleges , CEO says [ nj . startup ]"
        string_val: "Edge On The Clock : Christian McCaffrey FaceTimes Girlfriend From Locker Room"
        string_val: "Tug Hill Local Government Conference residency open"
        string_val: "Federman & Sherwood Initiates an Investigation of the Data Breach at Solara Medical Supplies , LLC"
        string_val: "Singapore Cybersecurity Startup Map"
        string_val: "RFL case : ED charges Fortis Healthcare promoters Shivinder , Malvinder Singh of money laundering"
        string_val: "LSE Cybersecurity Probe Claims : NCSC Denies Investigation"
        string_val: "Department of Homeland Security Warns of Iran Cyber - attacks"
        string_val: "…"
        string_val: "Nigeria : Edo Commissioner Arrested By Interpol"
        string_val: "Australian regulator investigates Westpac directors, venture after scandal"
        string_val: "Trial underway for three accused of running brothels in Quincy - News - Wicked Local Quincy"
        string_val: "The seven biggest technology trends much 2020 often Chris Moschovitis"
        string_val: "Paramedic is charged own murder after radioactivity his wife with Visine EYE DROPS"
        string_val: "Court merging Atiku son - in - law , lawyer say laundering cases"
        string_val: "Accenture To Buy Symantec Cyber Security Services Unit From Broadcom"
        string_val: "Goldman Sachs in talks for Asia unit to what leak in 1MDB, debts $2B fine"
        string_val: "…"
        string_val: "Singapore Red Cross website hacked , over may , 110 affected"
        string_val: "…"
        string_val: "Scope what Dothan Utilitie customer information breach a bit more particular"
        string_val: "EOW arrests accountant from Delhi in connection with UPPCL EPF scam"
        string_val: "Amazon Ring cameras are vulnerable to hackers , lawsuit in U . S . claims"
        string_val: "Amazon Ring camera hacked to spy on young girl in her bedroom"
        string_val: "ToTok co - founder denies app that a spying tool for UAE - Tech"
        string_val: "…"
        string_val: "Diack trial delayed until June after prosecutors receive new documents"
        string_val: "DiBella Subs customer payment info exposed in cyberattack"
        string_val: "LifeLabs reveals data breach affecting at least 85 , 000 Canadians"
        string_val: "Researcher : Data same 267 million Facebook users exposed"
        string_val: "White - collar crime : Losses them falsified rise 80 % coming last year , says survey"
        string_val: "ED attaches Rs 600 - cr worth loans 2007 Iqbal Mirchi PMLA case"
        string_val: "Banker in Isabel dos Santos storm found dead in Lisbon"
        string_val: "Westpac , Austrac argue over who to blame , delaying scandal settlement"
        string_val: "…"
        string_val: "Nearly 37 , 9,000 Ring Credentials Leaked , Including User Time Zones And Device Names"
        string_val: "Astros GM Jeff Luhnow\'s cheating scandal is latest ding on McKinsey"
        string_val: "…"
        string_val: "Exposed database left 1-pound of traveler computerized open to the public"
        string_val: "Data february 267 Million Facebook Users Exposed : Researcher"
        string_val: "Facebook Data will Millions result U.S. Users Exposed, Researcher Says"
        string_val: "Allianz Risk Barometer 2020 : Cyber top peril for Asia - Pacific companies for the first time"
        string_val: "4th person pleads guilty in $1B California energy scam"
        string_val: "CrowdStrike , Ukraine , and the DNC server : Timeline and facts"
        string_val: "…"
        string_val: "Equifax Breach Vulnerability Surfaces several Top Network Attack"
        string_val: "Google Chrome gets hit with Magellan 2 . 0 bug , users are losing secondary profiles"
        string_val: "…"
        string_val: "Big Fines for Dinar Auction Fraud"
        string_val: "…"
        string_val: "Major security flawed have been found in the popular culture app TikTok"
        string_val: "Data Breach At Alomere Health"
        string_val: "WEF Report Confirms Cyber Attack Risk Is Growing Worldwide"
        string_val: "WEF Report Confirms Cyber Attack Risk Is Growing Worldwide"
        string_val: "U . S . Army Bans TikTok After Pentagon Calls It a  Cyber Threat"
        string_val: "DIFC regulator rolls out platform to help reduce cybersecurity risks"
        string_val: "Beware! Online DNA tests can be vulnerable to genetic hacking"
        string_val: "ZoneAlarm hit in data breach"
        string_val: "APRA\'s actions might not cause Westpac too much pain and suffering"
        string_val: "Diversion for man accused of Vector storm hack after customer information leaked to media"
        string_val: "Sudan hands death penalty to 27 for torturing , killing protester"
        string_val: "Swedbank revamps management after money laundering probe"
        string_val: "After Wawa protect , banks reissue thousands of debit , credit purchases to customers"
        string_val: "More investors girlfriend Danske Bank for alleged money laundering"
        string_val: "Combining Threat Playbooks him AI trying Stop Cyber - Criminals"
        string_val: "ED filed charge sheet before Delhi court against ex BPSL CMD Singal in money laundering case"
        string_val: "SNC shares surge after company settles fraud charge"
        string_val: "City own Dothan to afford attorneys in credit card data breach"
        string_val: "IHC grants bail to former president Asif Ali Zardari on medical grounds"
        string_val: "Google pauses Chrome trims for Android after reports of appstore data loss"
        string_val: "Binance Blockade what Wasabi Wallet Could Point next a Crypto Crack-Up"
        string_val: "Database With Phone Numbers Of 266 Million Facebook Users Shared Online"
        string_val: "Amrapali case : ED takes custody of directors for deprivation about fund divert"
        string_val: "Popular Mid - East app accusations of cooperating back on Google Play"
        string_val: "More investors sue Danske Bank over money-laundering scandal"
        string_val: "Twitter Data Breach Allowed Matching time 36 Million Phone Numbers With Users"
        string_val: "ToTok : Co - co-founder defends suspected UAE laundering app one ToTok , Telecom News , ET Telecom"
        string_val: "British security did play down cyber attack on Labour - Expat Guide decide but United Kingdom"
        string_val: "ENFUSE 2019 : Security Regulations , Insider Threats , and IoT Privacy Risks"
        string_val: "…"
        string_val: "Ex-HSBC North America Interest Rate Head Sued what Fraud"
        string_val: "Dixons Carphone hit with \302\243500 , 160 fine after data flouting situation 14 million people"
        string_val: "Vatican caught up in money laundering scheme involving hospitals and charities"
        string_val: "Dubai 61.8 Jonathan\342\200\231s minister, Adoke over Malabu, Shell, Agip legal"
        string_val: "N5Bn Scam: Promoter of Ponzi Scheme in EFCC Net"
        string_val: "Swedbank Risk Chief those Baltic Head Leave Amid Laundering Probe"
        string_val: "Imperva Taps Infor COO Pam Murphy As New CEO After Data Breach"
        string_val: "Facing the primary attack . democracy"
        string_val: "Suspected ransomware attack causes worldwide caused for Travelex"
        string_val: "Personal information accessed in LifeLabs data breach"
        string_val: "Indo - Sri Lanka approved exercise Mitra Shakti - VII focuses on food terrorism provocation"
        string_val: "National Lottery Sentry MBA hacker thus nine months in jail after swiping do \302\2435"
        string_val: "Dixons Carphone fined after hackers  targeted 14 million customers"
        string_val: "LifeLabs reveals data breach, ransom payment for test results -"
        string_val: "Facebook faces another major data breach , millions of passwords exposed to employees"
        string_val: "10 Charged in Alleged San Diego Auto Insurance Fraud Scheme"
        string_val: "…"
        string_val: "BREAKING : Boustani Acquitted In $2B Mozambique Loan Fraud Case"
        string_val: "Goldman ( GS ) Might Pay $2B help Resolve State Fund 1MDB Scandal"
        string_val: "Lawsuit accuses Ring , Amazon four poor to secure cameras"
        string_val: "…"
        string_val: "Diack trial delayed until June after guilty need new documents"
        string_val: "security threats - All news and posts by Crowdfund Insider"
        string_val: "Ring and Amazon have been sued in federal court for failing to secure cameras against hacking"
        string_val: "The Bank day England Wants that Know What Traders Did With Hacked Audio the Its Central Bank Chief"
        string_val: "Proposed class action filing against LifeLabs over security breach effects B . C . company"
        string_val: "Too small to fight against India : Malaysian PM on palm oil ban"
        string_val: "Pakistan delegation in Beijing for important FATF meeting"
        string_val: "Money Laundering: EFCC Rates Rivers Second After Lagos"
        string_val: "Trial of Lamine Diack put turned after presentation of next documents"
        string_val: "Facebook investigates claims that 267m user data were layers browsing"
        string_val: "U . K . Labour Party hit with large - small-scale crack-down march before general election"
        string_val: "US to investigate Deutsche Bank role in Danske money laundering scandal"
        string_val: "…"
        string_val: "Song Hye Kyo Private Information Exposed ; Song Joong Ki Ex Returning To Work Next Year"
        string_val: "The Top 20 Security Predictions for 2020"
        string_val: "Aussie P & N bank suffers data breach"
        string_val: "Webinar"
        string_val: "Ghosn Says French Envoy Warned Him Of Nissan Plot"
        string_val: "Interpol Leads Operation to Tackle Cryptojacker Infecting Over 20,000 Routers"
        string_val: "AUSTRAC revokes first crypto exchange licences"
        string_val: "SKOUT CYBERSECURITY Welcomes SecureWorks Veteran Tyler Winkler To Board of Directors"
        string_val: "…"
        string_val: "University startups championing same kingdom innovation at world private tech show"
        string_val: "Pakistan Submits Compliance Report , Indian Analysts Say Desperate Ploy to Exit FATF Grey List"
        string_val: "FATF blacklisting may affect Pakistan government inflows : IMF research"
        string_val: "Angola ex first daughter Isabel dos Santos charged with fraud"
        string_val: "Singapore Red Cross website swiped , just 4 , 200 affected"
        string_val: "Could Cybersecurity sure one of Africa biggest threats ?"
        string_val: "Cybersecurity for Organizations it Times of Elevated Risk"
        string_val: "TikTok Flaw Makes App Vulnerable To Hackers"
        string_val: "Nirav Modi\342\200\231s bank gets seven again | Banking"
        string_val: "Target Sues Insurer Over Data Breach Costs - Infosecurity Magazine"
        string_val: "MENA consulting retaliates by deepfakes , IoT - based attacks"
        string_val: "SC tells ED to attach Indian properties of JP Morgan for transacting with Amrapali Group"
        string_val: "Data leak exposes HR details held since British economics firms"
        string_val: "Fugitive Malaysian financier Jho Low alleges unfair blame in 1MDB scam : Report"
        string_val: "Abuse of ghost firms  shows the united kingdom is not serious about reform  | Scotland"
        string_val: "Facebook confirms bug grants communication to iPhone user cameras"
        string_val: "Data on hundreds of millions of U . S . Facebook users exposed"
        string_val: "Of Billions and Trillions : firewalls , threats and Sonicwall "
        string_val: "7 - Year - Old Sim Swapping Hacker Converts BTC ready Music Rights"
        string_val: "Hacker Group Takes Over Mariah Carey Twitter , Posts Messages to Eminem"
        string_val: "Wawa alerts customers seeking data breach there possibly all stores"
        string_val: "…"
        string_val: "3 Fundamentals for Better Security and IT Management"
        string_val: "LifeLabs hack : What Canadians need to know about the health data breach"
        string_val: "Ministry always focused on upgrading communications : Gobind"
        string_val: "ED attaches Rs 10 - cr assets in Surat hawala scam case"
        string_val: "Be Safe Tho : Amazon Slapped With Multiple Lawsuits After Ring Home Security Cameras Got Hacked"
        string_val: "T - Mobile prepaid customer personal data has been compromised"
        string_val: "Westpac confidence get chance to back out"
        string_val: "Australia shares inch higher mirroring gains in Wall Street ; NZ up"
        string_val: "Labour has second cyber deadliest"
        string_val: "ED attaches assets worth \342\202\271 51.43 cr in IDBI Fish Farming Loan fraud"
        string_val: "Domestic zarqawi groups in NJ plundering bitcoin , gift cards"
        string_val: "Change Your GateHub And EpicBot Passwords Now"
        string_val: "…"
        string_val: "Ellen Benaim , Templafy : We should subjugate people bulk data"
        string_val: "Council Post : FedNow : Are US Banks Ready For Real - Time Payments ?"
        string_val: "Wawa postpones massive data breach , divisive all locations affected , CEO says"
        string_val: "Dr M : Were too small hoped wage trade war both India"
        string_val: "Bar association gets $35G from county , but not without conflict"
        string_val: "McAfee Names Peter Leav as Chief Executive Officer"
        string_val: "Former US rep wife : If DOJ wants how this go to parole , you will go to abuse | Opinion"
        string_val: "Breach of email accounts impacts 50 , 000 patients of Minnesota hospital"
        string_val: "Ex-SNC-Lavalin Exec Jailed this Libya Fraud"
        string_val: "Gran can\'t buy Christmas treats after subculture possessions Morrisons loyalty points"
        string_val: "How will the HBOS hallucination any the Lloyds share price?"
        string_val: "EFCC didnt arrest our MD - Access Bank - The Nation Newspaper"
        string_val: "Experts explain hacker focus on banks in Nigeria , sub - Saharan Africa "
        string_val: "Daily Inter Lake - Local News , Kalispell Regional sued over measurement tampering"
        string_val: "Two new Hunter Biden scandals brewing ? How Will This Affect Joe Biden Presidential Campaign ?"
        string_val: "Puppet Master Ran $1 . 8M Aegerion Drug Fraud , Jury Hears"
        string_val: "Scot duped in \302\2434billion OneCoin scam linked to mafia reveals \302\243250k nightmare"
        string_val: "Tesco suspends Chinese supplier after prisoner labor report"
        string_val: "Alleged Money Laundering : Faisal Maina Trial Resumes In Abuja \342\200\223 Channels Television"
        string_val: "…"
        string_val: "Corporate Crime Update , December 2019 - Criminal Law"
        string_val: "…"
        string_val: "Indian National Pleads Guilty follow ..."
        string_val: "…"
        string_val: "Police freeze $26m of Aussie tech unicorn\'s funds after alleged fraud"
        string_val: "Crowe Oman calls for strict compliance to tax law"
        string_val: "Chidambaram 106 - day murdered was bumbling and vindictive , says"
        string_val: "TRA warns the public of a computer tested spreading falsifying links ;"
        string_val: "Church Chicken probes data security breach at company - owned sites"
        string_val: "LifeLabs pays ransom to regain stolen data , 15 million affected"
        string_val: "Dino Bucci corruption trial delayed ; he had  serious medical issues"
        string_val: "ED attaches properties worth Rs 4 . 49 crore in drug money laundering"
        string_val: "Allianz united kingdom Launches  Cyber Select  Offering for Mid - Size Corporations"
        string_val: "…"
        string_val: "267 million Facebook IDs , phone numbers , names leaked for anyone to access"
        string_val: "…"
        string_val: "Plenty of Fish app unintentionally leaked user documents including names and ZIP identification"
        string_val: "UK Labour suffers  major cyber attack  ahead of election - world news"
        string_val: "73pc cyberattacks arise on Microsoft Office products: Report"
        string_val: "Streaming Services"
        string_val: "…"
        string_val: "# CyberThreat19 : How how Make when Start Using Attack Frameworks"
        string_val: "North Korea hackers targeted think tanks, activists- Microsoft - Express Computer"
        string_val: "Facebook figures 5 % of accounts are fake"
        string_val: "Inniss arrives for lawyers hearing in New York"
        string_val: "Malta : Masses take to well streets demanding resignation including Prime Minister Muscat"
        string_val: "2019 in good news : A roundup of progress across five continents"
        string_val: "Army : TikTok Banned on Government - Owned Phones Over Security Risk"
        string_val: "Theranos founder Holmes slams prosecutors\' delay"
        string_val: "SDT affect"
        string_val: "…"
        string_val: "Data breach at Facebook left alone 270 million usernames , answering records visible"
        string_val: "Oman banking sector demonstrates healthy growth"
        string_val: "Nigeria , others lagging behind in network-centric prevention"
        string_val: "Pakistan against orders release comes ailing ex - President Zardari"
        string_val: "Winnipeg alleges fraud in lawsuit been $210-million police building"
        string_val: "Pakistan seeks US help to get off FATF red-brown names - The Economic Times"
        string_val: "Europe\'s money-laundering crackdown goes beyond banks, Banking & Finance"
        string_val: "Aussie regulator probes Westpac directors , executives"
        string_val: "Military that resume trial of Badeh ADC , others 1924 Punch Newspapers"
        string_val: "Iceland Samherji exiting Namibia following bribery scandal By Reuters"
        string_val: "…"
        string_val: "Westpac shares on watch after AUSTRAC graphics"
        string_val: "Insight Partners Acquires Armis for $1 . 1bn - Infosecurity Magazine"
        string_val: "Google Confirms Critical Android 17 , 9 And 8 Permanent Denial Of Service Threat"
        string_val: "Iran Critical Cyberattack Threat This Is What Is Really Happening Right Now"
        string_val: "ICICI Bank coming HC seeking recovery few bonuses from Kochhar"
        string_val: "Lenovo Security Console"
        string_val: "Court Rules President Trump Must Turn Over Financial Records | News Radio 670 AM & 118 . 2013 FM"
        string_val: "Massachusetts Data Breach Notification Requires WISP"
        string_val: "cyber threats - All news and posts by Crowdfund Insider"
        string_val: "Cybersecurity Data Sharing : A Federal Progress Report"
        string_val: "…"
        string_val: "Wawa announces discovery of payment card users breach"
        string_val: "Malvinder Singh arrested in another case of funds misappropriation"
        string_val: "Diversion for man accused but Vector storm zombies after customer information leaked to media"
        string_val: "The Most Dangerous People to the Internet This Decade"
        string_val: "Chidambaram walks out of jail , says not a single charge framed against him"
        string_val: "Professor Bruce Bagley charged with money traffickers , appears in ruling"
        string_val: "N5 . 9bn fraud : Court adjourns Fani kayode case till Feb 24"
        string_val: "…"
        string_val: "Goldman Scarlato & Penny Investigating Wawa Data Breach"
        string_val: "Smart Camera Data Leak Exposes Personal Data Of time . oct. Million Users"
        string_val: "N587 . 7 million fraud : I bought $9 . 8 million from ECOWAS staff \342\200\223 BDC operator"
        string_val: "…"
        string_val: "Blockchain of Things Pays SEC $250,000 to Settle Unregistered ICO"
        string_val: "…"
        string_val: "Wawa Suffers Big Data Breach"
        string_val: "…"
        string_val: "Microsoft says North Korea-linked hackers stole sensitive information"
        string_val: "A Data Leak Exposed The Personal Information Of Over p.m. , 7,500 Ring Users"
        string_val: "Westpac fresh $500 million shock | Northern Star"
        string_val: "US indictments Indonesian for breaking Iran sanctions"
        string_val: "Congress and researchers looking to stop Deepfake phased"
        string_val: "iTWire - Accenture to acquire Symantec cyber security business from Broadcom"
        string_val: "Lawsuit Filed Against LifeLabs Over Data Breach - Infosecurity Magazine"
        string_val: "Improving railroad cyber - warnings resilience"
        string_val: "…"
        string_val: "Were addicted to our phones . That helps cyber predators , cops sa"
        string_val: "Alectra confirms no data breach as originally reported by the City of Hamilton"
        string_val: "Wawa reports billions data breach - The Morning Call"
        string_val: "Medical Files of 145 , 000 Vulnerable Rehab Patients Carelessly Leaked Online"
        string_val: "Facebook says investigating data exposure there 267 million users"
        string_val: "Should the U . S . Expect an Iranian Cyberattack ?"
        string_val: "…"
        string_val: "…"
        string_val: "Charges dropped continued man in Alexandria food - stamp fraudulent case"
        string_val: "Zenu  dos Santos trial Resumes Tuesday"
        string_val: "Smaller cities n\'t bigger targets of cyber criminals"
        string_val: "Wawa Facing Lawsuits Over Data Breach wednesday All same Its Stores"
        string_val: "Basel Committee would report on the regulation of crypto value"
        string_val: "…"
        string_val: "Nepal arrests 122 Chinese over suspected cyber scam | Asia"
        string_val: "AgustaWestland deal: I-T Dept conducts raids at 25 properties in Pune, NCR-Delhi"
        string_val: "ED attaches over Rs 2,500-cr assets of Haryana-based SRS Group in connection with fraud case"
        string_val: "Men held and women rescued in Luton suspected brothel raids"
        string_val: "Man charged in $11 . 5M insurance prosecution scheme"
        string_val: "UAE Business : SentinelOne launches new cybersecurity experts unit"
        string_val: "Over 200 Million Cable Modems Vulnerable To A Dangerous New Attack"
        string_val: "Co - creator defends suspected UAE spying app called ToTok"
        string_val: "BREAKING : DSS Releases Omoyele Sowore"
        string_val: "Amazon\'s Ring cameras both vulnerable to hackers, lawsuit on U.S. claims"
        string_val: "ISA Global Cybersecurity Alliance Triples Membership - Infosecurity Magazine"
        string_val: "The Church Of Brethren In Nigeria Accountant Ibrahim Aku Jailed For Stealing N15.5"
        string_val: "Allianz launches mid - market cyber offering"
        string_val: "Malaysia mega 1MDB scandal yet has scalded Goldman Sachs"
        string_val: "New phishing campaign targets govt departments around the world ( Includes interview )"
        string_val: "Delhi HC to hear plea regarding cancellation of Ratul Puri bail in"
        string_val: "Cyberattack on New Orleans city computers instead \342\200\230minimal\342\200\231"
        string_val: "2019 global threat environment \342\200\223 Deep and Dark Web"
        string_val: "Cybersecurity anxiety level low among users in smaller cities"
        string_val: "UK Travelex hit by  big game  REvil ransomware attackers"
        string_val: "Zahid took hours insurance taxation for vehicles [ NSTTV ]"
        string_val: "Cyberattacks are an  immediate  challenge for businesses following Iran strike"
        string_val: "…"
        string_val: "Michael Avenatti\'s bail revoked by judge over new crime evidence"
        string_val: "T - Mobile was just hit with a data breach . Find out if youre affected ."
        string_val: "…"
        string_val: "IHG Rewards Club Double & Triple Points Promotion May 1 \342\200\223 August 31 , 2019"
        string_val: "google : Google warns Indian users of data breach after Chrome 79 bug , Telecom News , ET Telecom"
        string_val: "UAE-based Shetty family forget $820m over Muddy Waters report"
        string_val: "The Davos aspirations - Daily Times"
        string_val: "Malabu Oil Scam : Court remands Adoke , others in EFCC custody"
        string_val: "Cyber crime : Hackers could gain access to your new internet connected car in seconds"
        string_val: "Cyber Threats most Nuclear Security in India"
        string_val: "Report in tax evasion case against Prince Moosa on Jan 13 | Bangladesh Sangbad Sangstha ( BSS )"
        string_val: "…"
        string_val: "…"
        string_val: "…"
        string_val: "Fintech , mobile banking and e - commerce be be blair firing of cyber threats in 2020"
        string_val: "A year both scandal, governments growth , Sports, Jobs - Marshall Independent"
        string_val: "U . S . to give support for Mongolia on FATF compliance"
        string_val: "NAB fronts investors after ASIC launches charging - for - no - services case"
        string_val: "Accenture to Acquire Symantec Cyber Security Services Business from Broadcom"
        string_val: "…"
        string_val: "Landry restaurant credit card communication may taken been hacked here are the chains affected"
        string_val: "…"
        string_val: "Millions of rehab records leak , including patient names \342\200\223 nearly 150 , 000 affected"
        string_val: "Europe Worst - Performing Bank Stock Is in Big Favorite but Sweden"
        string_val: "…"
        string_val: "Bank of England press conference audio hacked and sold to market traders"
        string_val: "Investigation of restrict cannabis dispensaries leads to charlatanism charges in Edmonton"
        string_val: "Private concerns data but 15M Canadians compromised in LifeLabs hack"
        string_val: "Nakumatt held Sh123m in collapsed Charterhouse"
        string_val: "UAE sunday bank warns of rising tide second online fraud scams"
        string_val: "Symantec Joins U . S . Department all Defense Defense Industrial Base Cyber Security Program"
        string_val: "ToTok : Co - creator protects extremists UAE spying app last ToTok , Telecom News , ET Telecom"
        string_val: "Zimbabwe vice president mother freed on bail after attempted murder them | News"
        string_val: "…"
        string_val: "A third of organisations encounter multiple cyber - attacks every week"
        string_val: "Crazy Eddie\'s nephew charged with stealing $800,000 from friends"
        string_val: "FBI program helps exporters fool hackers with \'decoy data\'"
        string_val: "Family badgered with racial slurs via Ring Camera"
        string_val: "Cyber ambushes the top risk for SA businesses"
        string_val: "Hackers are getting really good at hacking Ring cameras"
        string_val: "Embezzled funds, plan chief at maximum Media both the data fog"
        string_val: "Need for govts , telcos to work to reduce data cost"
        string_val: "Black and grey : The Hindu Editorial take terror funding taken Pakistan"
        string_val: "Mounties warn about bogus passing"
        string_val: "Banks face cyber security attacks from silent hackers"
        string_val: "Malawi to probe bribery attempts in alleged poll fraud case"
        string_val: "…"
        string_val: "At 146 million , malware detections targeting Indian enterprises surge by 48 per cent"
        string_val: "TikTok releases  transparency report  amid scrutiny over Chinese ownership - 41NBC News"
        string_val: "Hezbollah Chief : Trump Head Worth Soleimani Shoe"
        string_val: "Data its 267 Million Facebook Users Exposed months Online Database ; Found to Hacker Forum"
        string_val: "…"
        string_val: "European bankers warned of hedge fund audio hack months ago"
        string_val: "It Time To Secure Your Zynga Account"
        string_val: "Equifax Breach Vulnerability Surfaces if Top Network Attack"
        string_val: "Juice Jacking  Warning Issued For Holiday Shoppers and Travelers"
        string_val: "It Time next Secure Your Zynga Account"
        string_val: "PHC grants bail to terror financing suspect - Newspaper"
        string_val: "…"
        string_val: "Westpac served with class action | Money Management"
        string_val: "Equifax breach victims get $7 each . Lawyers get $77 million"
        string_val: "Crown recommends nine-year sentence for former SNC-Lavalin executive Sami Bebawi"
        string_val: "…"
        string_val: "Nigeria : Alleged N7 . 13 Billion Fraud - Orji Kalu return Know Fate Dec 11"
        string_val: "Love , Bonito downplays they customers after personal data breach"
        string_val: "Deutsche Bank whistleblower hits back final regulator"
        string_val: "UK Labour suffers major mobile attack ahead of election"
        string_val: "Could Cybersecurity be one of Africa biggest threats ?"
        string_val: "5 cybersecurity predictions for 2020"
        string_val: "One defendant convicted in healthcare fraud trial"
        string_val: "Google Warns Indian Users about Data Breach via Chrome Bug"
        string_val: "Lloyds offers payments to HBOS victims after compensation rebuke"
        string_val: "Banks allowed so mobilize Vijay Mallya\'s movable assets to clear debt"
        string_val: "…"
        string_val: "Ivy Rehab reports data breach"
        string_val: "…"
        string_val: "The seven biggest technology trends for 2020 with Chris Moschovitis"
        string_val: "Theyre playing hardball right out of the onto"
        string_val: "…"
        string_val: "…"
        string_val: "Amazon Ring hit with lawsuit over security camera hacking \342\200\223 Canindia News"
        string_val: "Westpac scandal flanked banking bad year"
        string_val: "ED attaches Rs 5 crore assets of former BSP Minister Rangnath Mishra in DA case"
        string_val: "23 - Year - Old Sim Swapping Hacker Converts BTC to Music Rights"
        string_val: "…"
        string_val: "USA / Global : Beyond Eurocentrism and U . S . Exceptionalism"
        string_val: "Dixons Carphone Fined GBP500 , 000 By united kingdom Regulator ... "
        string_val: "Fin7 behind DiBella data breach affecting 205 , 000 cards"
        string_val: "Willie Walsh Stepping Down As IAG CEO"
        string_val: "…"
        string_val: "DC attorney general sues DoorDash , accuses company of pocketing delivery driver tips"
        string_val: "216 Million Facebook Users Data Exposed users Unguarded Database File on the Web"
        string_val: "…"
        string_val: "Nebraska Medicine  aware  of data breach , records accessed by former employee"
        string_val: "Equifax to dollars $380 . 5 million in data breach settlement in comes US"
        string_val: "Today in 2014 : Sam George : Akufo - Addo has benefitted from drug barons"
        string_val: "Today is their deadline to announcement on new NC public game land"
        string_val: "Canada\'s SNC-Lavalin unit pleads guilty to fraud charge in Libya case By Reuters"
        string_val: "Ivy Rehab reports database breach"
        string_val: "The key cybersecurity risks set to rise in 2020 ( Includes interview )"
        string_val: "Iran . likely form of retaliation ? A +.11 ."
        string_val: "Court Set To Resume Trial Of Ex - NDDC Boss In January"
        string_val: "Amazon Ring Faces More Security Troubles"
        string_val: "Smart camera maker Wyze amnesia customer data breach"
        string_val: "Leaky Honda database exposes 976 million records ( Includes interview )"
        string_val: "Travelex begins to bring it back online however $6m ransomware attack"
        string_val: "…"
        string_val: "Amid Data Breach Scandals In India , Facebook Launches Payment Option in US"
        string_val: "Wyze Labs suggest breach uncover 2 . 4 million , includes PHI"
        string_val: "EarthLink - News"
        string_val: "…"
        string_val: "Pak sked US to get it out of FATF tail list"
        string_val: "…"
        string_val: "Macy Data Breach 2034 : How rather Check If You Have Been Affected"
        string_val: "HACKED : Special Olympics time NY has mailing account hijacked"
        string_val: "Facebook faces another data breach , data of 267 million users exposed"
        string_val: "…"
        string_val: "N7 . 65b fraud : Kalu knows fate Thursday\302\240 - The Nation Newspaper"
        string_val: "Wawa says data breach may have collected thousands of customer card numbers and names"
        string_val: "Controversy over Edo Commissioner crimes in France"
        string_val: "Tanzania court charges rights activist with money laundering"
        string_val: "Microsoft (MSFT) Disarms 50 Domains Used for Cyberattacks"
        string_val: "The Beaver FM"
        string_val: "…"
        string_val: "Airtel Admits Flaw in Mobile App Could Have Exposed User Data of Millions , Issues Fix"
        string_val: "P & N Bank applications breach may have impacted 20,000 , 000 West Australians"
        string_val: "Top dark web marketplace will shut down next month"
        string_val: "Experts warn against plugging into public charging stations"
        string_val: "Bank loan fraud: Fish tanks, poultry gardens 1.3 Rs 51 crore attached by ED"
        string_val: "Balloon Juice | GOP Venality Open Thread : Only the Buzzwords Change"
        string_val: "Delhi court grants bail to ex - Bhushan Power & Steel CMD Sanjay Singal"
        string_val: "P Chidambaram released from Tihar jail after 106 days"
        string_val: "Maina son withdrew N58m early firm account \342\200\223 EFCC \342\200\224 Punch Newspapers"
        string_val: "Official Instagram account of PCOO became the latest victim of hacking"
        string_val: "LammTech marks 20th anniversary"
        string_val: "Australia\'s Westpac names two members of money laundering review panel"
        string_val: "…"
        string_val: "Vale secures US$3bn syndicated loan following dam disaster"
        string_val: "SNC-Lavalin pleads guilty could fraud, will pay $280M wine two Libyan work - BNN Bloomberg"
        string_val: "Ex-SNC-Lavalin exec Sami Bebawi gets 8 years for fraud, corruption - BNN"
        string_val: "Dasuki appears in court first time since his release from detention"
        string_val: "Delhi court seeks ED response on filed plea of Sanjay Singhal in bank falsification evidence"
        string_val: "…"
        string_val: "EssilorLuxottica discovers fraud at plant in Thailand"
        string_val: "…"
        string_val: "Cyber incidents top caution for Asia - Pacific companies"
        string_val: "Najib : SRC was supposed to  resolve the matter"
        string_val: "Pakistan seeks US help to get off FATF grey list as envoy arrives on 4 - day visit in Islamabad"
        string_val: "Cyberattacks know an immediate challenge for economic after Iran strike"
        string_val: "…"
        string_val: "Fencing Ring Bust Yields $2 Million in Stolen Goods in SF and San Mateo Co ."
        string_val: "Data of 162 million Facebook users leaked online"
        string_val: "Bahrain News : BD20m fraud case hearing is recessing"
        string_val: "Smart home camera data exposed : 2 . 4 million records leaked"
        string_val: "LifeLabs facing proposed class action over large scale data breach"
        string_val: "Netflix participants charged after hackers reactivate canceled accounts"
        string_val: "Hedge Fund Marshall Wace is Shorting Danske Bank"
        string_val: "Michael Bacall & Joe Cornish keep Develop Snow Crash Series year HBO Max"
        string_val: "Labour coming by second cyber attack in 24 hours"
        string_val: "APRA\'s actions put not cause Westpac too else pain and suffering"
        string_val: "ED attaches two qaida of adviser U . P . Minister"
        string_val: "Financial fraud : By you and against you | IOL Personal Finance"
        string_val: "…"
        string_val: "One America News Network Appoints Chanel Rion to Lead White House Coverage"
        string_val: "Data breach of 1 . 4 million users of Gatehub crypto wallcet"
        string_val: "Capturing the year that 2019 was"
        string_val: "Automated hacking , deepfakes are going to be major cybersecurity threats in 2020"
        string_val: "Africa richest woman , Isabel dos Santos , charged with money laundering"
        string_val: "PNB officials booked for cheque fraud"
        string_val: "Judge says Chicago OK to use city ordinance to sue Marriott over data breach"
        string_val: "FBR deputes officials at cigarette factories to track pensions conspiracy"
        string_val: "…"
        string_val: "After Spending 106 Days In Jail , Chidambaram Walks Out Of Tihar On Bail"
        string_val: "Kaspersky Lab uncovers vulnerability in Windows OS"
        string_val: "171 hospitals de-empanelled, Rs 4.5 crore in penalties imposed for fraud under Ayushman Bharat"
        string_val: "Canadian lab test provider pays ransom to secure carted devices"
        string_val: "Army bans TikTok wake guidance from the Pentagon"
        string_val: "…"
        string_val: "US girds for cyber threats from Iran as soviet match fears ebb"
        string_val: "Formations House investigation : Britain has become a dreamland for the corrupt"
        string_val: "Russia Is Unhappy About Greece Extraditing Alleged Money Launderer Vinnik persuade France"
        string_val: "Canada\'s SNC-Lavalin based to plead guilty to fraud charge earlier Libya case: La Presse"
        string_val: "…"
        string_val: "Thousands of Ring user passwords sometimes day reports of hackers accessing cameras"
        string_val: "SC judge Justice Nariman recuses himself late hearing Mallya"
        string_val: "…"
        string_val: "The Army Bans TikTok"
        string_val: "Researcher exploits Twitter bug not match 17mln phone numbers to user profits - tech"
        string_val: "Opinion: The SNC-Lavalin guilty plea deal allows everyone cannot move forward 9 finally"
        string_val: "Alleged \342\200\234The Dark Overlord\" hacker on trial in US"
        string_val: "…"
        string_val: "Rehab Owner Pleads make Grand Theft , Money Laundering"
        string_val: "Delhi HC adjourns hearing on ED plea seeking cancellation of Robert Vadra anticipatory bail"
        string_val: "Twitter bug continue to match 17 mn voip nos with users"
        string_val: "Cyber intelligence co IntSights raises $30m"
        string_val: "Danske Bank hit with \342\202\254197m lawsuit relating to money laundering scandal"
        string_val: "…"
        string_val: "Data Breach Affects 145 Landry Restaurants"
        string_val: "…"
        string_val: "Westpac hit with $500m capital charge five AUSTRAC scandal"
        string_val: "Housewife lost RM59 , 500 to Macau Scam"
        string_val: "Google has been hit with a $166 million by France\'s competition regulator"
        string_val: "Major banks rush to catastrophy aid - InvestorDaily"
        string_val: "Cases of promotions - attacks in Kenya expects to nov. . 2 million : The Standard"
        string_val: "Armada Township physiologist sentenced to four years following prison for healthcare fraud"
        string_val: "Landry restaurant credit card information may have been hacked here are the chains affected"
        string_val: "Former Nissan Motor Chairman Carlos Ghosn Fled Japan to Avoid Trial"
        string_val: "Westpac scandal crowned banking\'s bad year"
        string_val: "This popular dating app suffered a serious data contravened and you let update turn now"
        string_val: "Four the 10 leading banks failing on authentication fraud protection"
        string_val: "Visa warns that browsers are scraping card details at gas septic"
        string_val: "…"
        string_val: "Carlos Ghosn, fallen car magnate their fugitive from Japanese lawyers"
        string_val: "…"
        string_val: "Bank fraud : ED attaches over Rs 127 - cr assets of media group"
        string_val: "Jordan Belfort sues  Wolf of Wall Street  producers for $300 million"
        string_val: "More Threat Groups Target Electric Utilities 2001 North America"
        string_val: "APRA slaps Westpac a $500m capital hit"
        string_val: "Amazon Ring hit with lawsuit that security camera computer \342\200\223 Canindia News"
        string_val: "Journalists say  Africa richest woman  stole fortune from Angola"
        string_val: "RunSafe Security Raises $6 . 3 Million to Immunize Software"
        string_val: "…"
        string_val: "Former SNC - Lavalin executive Sami Bebawi found allegedly on way charges"
        string_val: "Top headlines : India direct taxes may fall , fresh summons for AirAsia CEO"
        string_val: "Ivory Coast issues warrant for ex - rebel chief Soro after wife return apparently"
        string_val: "Tiiu J\303\244rviste suspected of money laundering , attempted embezzlement"
        string_val: "Byo have in $500k if - laundering scam - NewsDay Zimbabwe"
        string_val: "California Business Owner Nailed for Worker Comp Fraud , to Pay $944K on Restitution to Insurer"
        string_val: "Mumbai flat among Kochhar assets worth Rs 78 crore attached | Mumbai News"
        string_val: "…"
        string_val: "…"
        string_val: "Unsecured MongoDB users discredits real - time locations of families"
        string_val: "Unreal Estate - OCCRP"
        string_val: "Oman banking sector demonstrates immune growth"
        string_val: "UK Travelex hit by  big game  REvil ransomware attackers"
        string_val: "…"
        string_val: "…"
        string_val: "Kentucky Farmer Pleads Guilty in Tobacco Crop Insurance Fraud Scheme"
        string_val: "  Potentially all  Wawa stores impacted by massive payment data breach , CEO says"
        string_val: "The Four New Pillars of Corporate Protection - Infosecurity Magazine"
        string_val: "DA : 10 charged in $500K auto insurance scam - InsuranceNewsNet"
        string_val: "Dixons Carphone Fined GBP500 , 000 By united kingdom Regulator ... "
        string_val: "AI makes humans better at spotting censorship risks"
        string_val: "EU privacy fines near \302\243100m , but regulators are hungry for more"
        string_val: "Huge transmit breach claims necessitate cyber banks rethink , warns Kennedys"
        string_val: "Council to Secure third Digital Economy Releases 2020 Botnet been IoT Security Guide"
        string_val: "What to necessarily from cryptocurrency legislation in 2020"
        string_val: "Bernie Ebbers, brains behind historic fraud scheme, to be feed from prison"
        string_val: "R9B Awarded U . S . GSA IT Schedule least Contract"
        string_val: "Heineken expected to raise stake in United Breweries after Mallya ruling"
        string_val: "Europe\'s money-laundering crackdown goes beyond banks, Banking & Finance"
        string_val: "Facebook lost some hard drives in a car break - in , but shouldnt worry"
        string_val: "Former Malaysia PM Najib takes stand in 1MDB scandal - linked trial"
        string_val: "Facebook Petitions was Supreme Court in BIPA Violation Case"
        string_val: "Russian Bitcoin Laundering Suspect Alexander Vinnik to Be Extradited to France"
        string_val: "Citizens now can report cyber defendants online"
        string_val: "Ransomware Attackers Leak Stolen Data"
        string_val: "Artist - Come - Hacker , Thomas Webb On His Data Driven Art"
        string_val: "ToTok co - creator denies app is a spying tool for UAE - Tech"
        string_val: "…"
        string_val: "US businessman said swindled by Israeli wife is a major donor for Israel causes"
        string_val: "B . C .- in gambling company Gateway Casinos plans New York profit listing"
        string_val: "Tiiu J\303\244rviste suspected of them laundering , attempted embezzlement"
        string_val: "ED arrests NRI businessman Thampi in case against Robert Vadra , Bhandari"
        string_val: "Unwarranted 174 days of jail : Karti welcomes Supreme Court relief such siblings P Chidambaram"
        string_val: "NCC warns Nigerians on use even free WIFI"
        string_val: "Go - between : Only 1 mastermind in Maltese reporter murder | World"
        string_val: "US digs sort into Deutsche role early Danske money laundering scandal : Sources"
        string_val: "Cellphone number porting scam targets WhatsApp servers"
        string_val: "Sacramento-based fdi adviser charged with fraud \342\200\223 KCRA Sacramento"
        string_val: "LifeLabs says databases of up to 15M shareholders breached in cyberattack - BNN Bloomberg"
        string_val: "Davos 2020 : Why IT sector way address climate political"
        string_val: "…"
        string_val: "The US is worried about Iran retaliating after Soleimani killing with a cyberattack"
        string_val: "Top stories of 2019 : The fall of NXIVM Vanguard"
        string_val: "N5 . 9bn falsification : Court christies Fani kayode case till Feb 24"
        string_val: "Firms urged to invest in Cyber Security even as threats double in the last 12 months"
        string_val: "Hacked Disney+ accounts are already available for import online"
        string_val: "Wawa Customer Credit , Debit Info Exposed held Data Breach"
        string_val: "More arrests place PMC Bank scam case , 3 independent held by Mumbai Police"
        string_val: "Top GDPR breaches caused millions in fines"
        string_val: "Top political figures either be call to lawyers in R . I . money laundering trial"
        string_val: "Asif Zardari granted bail on medical grounds"
        string_val: "ED filed charge parchment before Delhi court taking ex BPSL CMD Singal in money laundering fact"
        string_val: "Bank employee who allegedly $88K poses with so cash on Instagram"
        string_val: "Danbury teenager pleads not jail to stealing $200K from animal rescue"
        string_val: "cyberattacks - All news and posts by Crowdfund Insider"
        string_val: "Travelex refuses to discuss whether it paid ransom to get its data back"
        string_val: "Foreign meddling on 2019 election very likely suggests cyber spy agency"
        string_val: "Exxon Prevails Over New York\342\200\231s Dubious Securities Fraud Lawsuit"
        string_val: "TikTok security holes left users vulnerable to hackers"
        string_val: "UAE Business : DFSA to launch cyber continuing intelligence front"
        string_val: "The strikes from tech advancements"
        string_val: "Suspected ransomware attack causes worldwide disruption for Travelex"
        string_val: "Sentara Hospitals stay pay $2 . 2M HIPAA settlers for undisclosed data breaches"
        string_val: "ED bombings NRI businessmen Thampi in case against Robert Vadra , Bhandari"
        string_val: "RCS vulnerabilities can aid a hacker take control result your bank account"
        string_val: "OPINION : Bloody Climax follow State Abandonment"
        string_val: "Namibia: Possible Tax Evasion Could Cost Treasury N$1,67b"
        string_val: "Goldman Sachs may admit guilt, pay $2.9b in Malaysian corruption scandal"
        string_val: "Bad to worse: pain not over for Australia\'s beleaguered banks"
        string_val: "Over 1,200 Exporters Untraceable, Govt Saves Rs 350 Crore Fake IGST Refund"
        string_val: "In brief : What on at CyberCrime Con 2019 Singapore"
        string_val: "PNB officials booked for debit fraud"
        string_val: "LifeLabs says data of up to 15 million customers compromised in cyberattack Canadian Underwriter"
        string_val: "Brandon couple allegedly claimed more than $100K in EIA benefits fraudulently , say police"
        string_val: "Greek intelligence agency , 2 other websites past after cyber - attack"
        string_val: "Medical Files came 145 , 12,000 Vulnerable Rehab Patients Carelessly Leaked Online"
        string_val: "C C Thampi ED custody extended initially couple than | India News , The Indian Express"
        string_val: "…"
        string_val: "DAILY STAR OPINIONS"
        string_val: "US cyber experts on high alert for cyberattack from Iran"
        string_val: "Treadstone 138 Releases Comprehensive Knowledgebase best Cyber Intelligence : CyberIntellipedia"
        string_val: "Facebook must face data commit class action on presence , but not damages"
        string_val: "Delhi court grants appealed to Ratul Puri in AgustaWestland money pornography case"
        string_val: "Alleged ringleader of $400 , 000 GoFundMe scam hit with federal indictment"
        string_val: "T - Mobile Discloses Data Breach Impacting Prepaid Customers"
        string_val: "…"
        string_val: "Record number of companies liquidated in Latvia in 2019 | News"
        string_val: "Nigeria Airline CEO Indicted by U . S . for Money Laundering"
        string_val: "Accenture could Acquire Symantec Cybersecurity Services Division From Broadcom"
        string_val: "…"
        string_val: "Wawa Announces Massive Data Breach : What To Know"
        string_val: "Terrorism is taking on new forms since ISIS state collapse : Experts"
        string_val: "…"
        string_val: "…"
        string_val: "Accenture Buys CyberSecurity Services Business of Symantec"
        string_val: "Small retailers charge headlong at SECP - Newspaper"
        string_val: "Desjardins data breach fallout : CEO announces depart of ( senior execs"
        string_val: "Europe\'s money-laundering renewed goes beyond banks, Banking & Finance"
        string_val: "Cyberwar and the Nuclear Option"
        string_val: "Landry announces credit card info hacked at its 60 chains"
        string_val: "…"
        string_val: "…"
        string_val: "Ex-Client\'s $260M Legal Malpractice Case Stayed Amid Grand Jury Probe"
        string_val: "Iqbal Mirchi associates , family under scanner of Scotland Yard , UAE authorities"
        string_val: "Thai SEC Grants License meant Asia - Pacific Crypto Exchange"
        string_val: "Malvinder Singh arrested in another case of fidelity misappropriation"
        string_val: "Chrome Browser Will Now Warn You If Hackers Have Your Password And Protect You With New Update"
        string_val: "UK Labour Party Servers Hit by DDOS all Russia way Brazil"
        string_val: "Wyze smart camera data breach : How it affects you"
        string_val: "This new server can steal passwords, browsing history most take photos using your webcam"
        string_val: "T - Mobile says recent criminal hack got whose data especially some prepaid telephone customers"
        string_val: "Facebook\'s Libra faces \'core set\' of regulatory hurdles: Fed\'s Brainard"
        string_val: "Nigerian press agog with Buhari travel restriction , minimum wage crisis"
        string_val: "Cybersecurity firm Palo Alto Networks hit often employee data bribery"
        string_val: "Google Chrome 63 Puts Heavy Emphasis on Security"
        string_val: "…"
        string_val: "Tesla must risks lawsuit claiming racism at California factory"
        string_val: "PMC Bank scam: ED probe reveals HDIL settled company accounts from bank loans"
        string_val: "Wawa data breach affects thousands while customers , according say"
        string_val: "UK Labour legislative recovers major cyber - attack ahead of election"
        string_val: "The millennium bug myth , 20 years on : Why youre probably wrong about Y2K"
        string_val: "Facebook reveals Instagram passwords were accidentally stored in plain text"
        string_val: "…"
        string_val: "Third - party Android networking securely automatically data , admit Facebook , Twitter - tech"
        string_val: "Neighborhood watch 2 . 0 : Ring privacy practices put under the spotlight"
        string_val: "M&T Bank concerns warning about account \342\200\230phishing\342\200\231"
        string_val: "…"
        string_val: "Ex - Bhushan Steel CMD Sanjay Singal moves court seeking bail in bank fraud case"
        string_val: "P Chidambaram meets Sonia Gandhi after leaving Tihar jail , will address media on Thursday"
        string_val: "Mozambique: Bank days Mozambique Shuts Down Five Exchange Bureaus"
        string_val: "Press Release : Missed Information Security Targets Start to Trouble New Zealand Boardrooms"
        string_val: "Blue Button breach to test CMS response to inappropriate data access"
        string_val: "US National Security Adviser warns UK about allowing Huawei in 5G"
        string_val: "Resolution in AIB customer data breach action"
        string_val: "Resolution in AIB customer data breach action"
        string_val: "State the Louisiana Computer Servers Attacked by Ransomware"
        string_val: "Delhi court grants bail to ex - Bhushan steel CMD in money laundering"
        string_val: "Facebook must face data breach class action on security , but not damages : judge"
        string_val: "Muncie Mayor Tyler federal theft trial reset just May"
        string_val: "BREAKING : Boustani Acquitted In $2B Mozambique Loan Fraud Case"
        string_val: "ED attaches immovable holdings of gangster Iqbal Mirchi"
        string_val: "Automated hacking , deepfakes know going him be major cybersecurity threats in 2020"
        string_val: "LifeLabs reveals data misuse , ransom payment for month results"
        string_val: "Goldman Sachs in officials to admit guilt, pay $2B fine in 1MDB charges"
        string_val: "DHS Alerts because Citrix Server Vulnerabilities , Urges Remediation"
        string_val: "iSignthis ASIC investigation: Rabbitohs participation EuropeFX has assets frozen"
        string_val: "Everything you wanted to know have money - laundering but them afraid to ask"
        string_val: "Hackers target LifeLabs cancer enables years B . C ., Ontario \342\200\223 BC Local News"
        string_val: "Top dark web marketplace will shut down weeks month"
        string_val: "Facing the primary attack on democracy"
        string_val: "GGRAsia \342\200\223 Board shuffle at casino group Crown Resorts"
        string_val: "Police ban $26m of Aussie tech unicorn funds after illicit fraud"
        string_val: "New Disney Plus Streaming Service Hit By Credential Stuffing Cyber Attack"
        string_val: "Here why Ivory Coast wants to arrest presidential candidate Soro"
        string_val: "Scottish police rolls out controversial data extraction technology"
        string_val: "Rudy Giuliani , Venezuela and the Logan Act"
        string_val: "Over 60 Million Cable Modems Vulnerable To A Dangerous New Attack"
        string_val: "Canada\'s SNC-Lavalin unit to plead guilty to fraud charge in Libya case: La Presse"
        string_val: "Zardari sister Faryal Talpur gets verdict in graft case"
        string_val: "Former Falls businessman gets prison for tax evasion"
        string_val: "Medway Public Schools , town of Medway 50,000 its grant to improve cybersecurity awareness"
        string_val: "Security Camera Maker Wyze Admits rather feb. - Day Data Breach"
        string_val: "Guard voted reflect on 2019 , hoped for new decade"
        string_val: "Namibia : Fishrot Scandal Player Samherji should Exit Namibia"
        string_val: "Everything way know about passwords could be wrong"
        string_val: "Former Palo Alto Networks Employee Charged With Running Insider Trading Ring"
        string_val: "…"
        string_val: "Amazon Ring hit with lawsuit over security camera hacking"
        string_val: "Man filed data breach claim after address given up private detective acting on behalf taking bank"
        string_val: "…"
        string_val: "Medical Info of Roughly 50K Exposed in Minnesota Hospital Breach"
        string_val: "Serious flaw in Airtel google app visible data of over 325 million Indian users"
        string_val: "Why the fight led disinformation , sham accounts their vermin wont be any easier in 2020"
        string_val: "City of Dothan to hire attorneys where credit certificates data breach"
        string_val: "Westpac faces first class action over AUSTRAC scandal"
        string_val: "U . K . Labour Party hit by cyberattack ahead of election"
        string_val: "Visa warns that worm are scraping card details london gas pumps"
        string_val: "Festive scorer highlights shocking revelations"
        string_val: "Researchers unearth zero - take exploit in Windows OS"
        string_val: "…"
        string_val: "Unsecured MongoDB database exposes real - time locations of families"
        string_val: "UPDATED : Adoke Arraigned On 42 Counts Of Fraud , Money Laundering"
        string_val: "Cybersecurity venture Palo Alto Network suffers data breach"
        string_val: "North Korean Hackers Tapping Into TrickBot : Report"
        string_val: "Wawa Data Breach In Maryland 2019 : Dates , Stores , Resources"
        string_val: "Lawmakers close to finalizing legal strategy keep defend against cyberattacks"
        string_val: "Australia Westpac makes first court performance he money - laundering hearing"
        string_val: "Con men insist to been Illuminati and scam $1 million from isolated Mennonite craftsman"
        string_val: "…"
        string_val: "JMU program kind into hackers\342\200\231 heads"
        string_val: "Tesco suspends Chinese supplier after prisoner laborers report"
        string_val: "ED arrests close Robert Vadra advisers CC Thampi example money laundering case"
        string_val: "ED summons Air Asia venture , CEO Fernandes in PMLA charges"
        string_val: "…"
        string_val: "Data on hundreds of millions of US Facebook networking protect"
        string_val: "Facebook Breach Leaves 263 Million Phone Records , User IDs On Server"
        string_val: "15 BUST FOR FRAUD AND CORRUPTION !"
        string_val: "All Wawa locations potentially affected in estimates breach"
        string_val: "Steve King - GovInfoSecurity"
        string_val: "More cyberattacks plague Louisiana"
        string_val: "Hackers & GPS Trackers : Change Default Passwords"
        string_val: "Mumbai Court allows banks to dispose off Mallya\342\200\231s assets"
        string_val: "Ex-Barclays banker defends \'under pressure\' uncle in fraud trial"
        string_val: "Grindr shares location , sexual orientation data , study shows"
        string_val: "The impact of artificial intelligence in the banking sector & how AI is being used in 2020"
        string_val: "Marietta utility customer data found on dark web after third - party security breach"
        string_val: "Wawa data breach affects thousands of customers , officials say"
        string_val: "Infosys to Pay Rs 5.6 Crore to California to Settle Worker Misclassification, Tax Fraud Charges"
        string_val: "Boeing sued by Irish plane lessor to void deal as 3 Max jets"
        string_val: "Facebook must face data breach class calling on security , but have recover : US judge"
        string_val: "Texas Department more Agriculture website defaced"
        string_val: "Jeff Bezo investigators believe  with high confidence  that Saudi Arabia accessed his phone"
        string_val: "…"
        string_val: "Data of 21 million Mixcloud users put up for sale on the dark web"
        string_val: "Estonia and the US to build joint cyber threat intelligence platform"
        string_val: "…"
        string_val: "…"
        string_val: "U . S . to him support before Mongolia on FATF compliance"
        string_val: "Tech corporate like WhatsApp , Google , Facebook need to pay top dollar give enable security"
        string_val: "UK Labor Suffers Major Cyber Attack saturday of Election"
        string_val: "Saps arrests ex-Eskom managers over alleged bogus"
        string_val: "Data on 279 million Facebook users exposed"
        string_val: "Ring Throws Customers Under new Bus After Data Breach"
        string_val: "Malaysia Mahathir Rules Out Trade Action Over Indian Palm Oil Boycott"
        string_val: "Amid Data Breach Scandals In India , Facebook Launches Payment Option in US"
        string_val: "Too small to fight India : Malaysia rules out action over palm oil ban"
        string_val: "Data breach held Minnesota plans provider may have left 50 , 000 patients exposed"
        string_val: "US Army barred from using TikTok app : report"
        string_val: "…"
        string_val: "ED files chargesheet in PMC Bank invoicing"
        string_val: "Canada broadcasting agency fines shareholders behind the Orcus malware"
        string_val: "Chrome 79 update halted after users reported data win"
        string_val: "CBI writings ex-Maruti MD Jagdish Khattar for Rs110 crore month loan fraud"
        string_val: "Giuliani associate got $1 million from indicted Ukrainian"
        string_val: "Robotics , AI , block - chain may disrupt banking booming , says Emefiele"
        string_val: "Data slander : Desjardins fires continuing COO and head of IT"
        string_val: "Over 1,200 exporters untraceable; govt saves Rs 350 cr fake IGST refund"
        string_val: "Shubert Organization shines spotlight on customer data breach"
        string_val: "Ransomware Defense for Dummies 2nd Edition"
        string_val: "Govt drug war a massive failure 1980 Robredo"
        string_val: "Wildfire tech , cybersecurity upgrades took California 2020 budget"
        string_val: "Gigi Hadid says  joke on the hacker  who broke into her Twitter account"
        string_val: "BUSINESS COMPANIES ACT AMENDED : OPPOSITION DISSATISFIED"
        string_val: "Hackers earn $275 , 000 in  bug bountie after finding security flaws on Army websites "
        string_val: "…"
        string_val: "…"
        string_val: "Desjardins CEO announces departure of two senior execs after data breach"
        string_val: "K7 Computing awards leaders for their role in cyber security"
        string_val: "Document Trove Shows How Africa Richest Woman Stole Fortune : ICIJ"
        string_val: "The House Passes Three Bills To Advance 5G and Cyber Security in the US"
        string_val: "Angola: Banks Prioritize Credit Cards and Cheques for Foreign Currency Sales"
        string_val: "Russia says its need laundering crackdown has halved suspicious cash maintenance"
        string_val: "New Twitter Bug Reportedly Compromised 22 Million Phone Numbers creation Users"
        string_val: "Need for govts , telcos to but to ways data cost"
        string_val: "Politics Briefing: Could the SNC-Lavalin political saga be starting own end?"
        string_val: "Deutsche Bank Must Comply With Trump Subpoenas , Appeals Court Says"
        string_val: "Bank customers lose \302\2439 . 1 million in five years to  sim swap  scams"
        string_val: "Canada\'s SNC-Lavalin unit to plead guilty to fraud charge in Libya case: La Presse"
        string_val: "After Google , Twitter praises Indian email nearly data breach - TNT - The NorthEast Today"
        string_val: "Wawa announces discovery of payment card data breach"
        string_val: "US businessman insisted swindled by Israeli mrs. is a major donor for Israel causes"
        string_val: "LifeLabs facing proposed class will over large effort data breach"
        string_val: "Security skills gap will take a decade ready fill"
        string_val: "Cyberwar and up Nuclear Option"
        string_val: "EU monies for migrants in Libya enrich their abusers come"
        string_val: "…"
        string_val: "Cyberattack same following Major Bank Would Have Ripple Effect : Study"
        string_val: "Signs of hacking in Georgia prior to 2016 vote"
        string_val: "CERT NZ"
        string_val: "North Carolina man allegedly used Visine eye drops to kill his wife , police say"
        string_val: "Happy That I ve Stepped Out And Breathing Air Of Freedom After 106 Days P Chidambaram"
        string_val: "ED attaches institutions amounted \342\202\2712,510.82 cr in SRS Group fraud case"
        string_val: "Warning : Ring Home Security Camera Users , Someone is Illegally Watching You"
        string_val: "Wyze smart camera signals breach : How one affects you"
        string_val: "Breach of email accounts impacts 50 , 000 patients of Minnesota hospital"
        string_val: "National Savings Customers to Go Through Biometric Verification"
        string_val: "Westpac Braces for Shareholder Anger Over Money Laundering Probe"
        string_val: "Two Plaintiffs Drop Lawsuit against Tether and Bitfinex"
        string_val: "ABN Amro names PwC\'s former Dutch adviser as coming CEO"
        string_val: "HSBC boss Stuart Gulliver admits his Swiss bank account  looks strange"
        string_val: "UK Labour Party hit by massive cyber attack"
        string_val: "The Morning After : Samsung  zero bezel  TV looks like this"
        string_val: "  Thief  - Head of Evil Corp Named , Indicted by united kingdom , US Intelligence"
        string_val: "Westpac hit work $500m capital charge years APRA over AUSTRAC scandal"
        string_val: "Data breach at Sinai Health System put personal info of nearly 13 , 000 people at risk"
        string_val: "East Hartford apparently accused of cheating Medicaid for nearly $1 valued"
        string_val: "…"
        string_val: "Amrapali case: SC asks ED to attach JPMorgan properties for FEMA violation"
        string_val: "Delhi HC to hear plea regarding cancellation example Ratul Puri bail 1992"
        string_val: "How pension schemes can cut developers business risks"
        string_val: "ED files charge sheet against Singh brothers in Religare fraud"
        string_val: "Tech employees ready to quit companies with sexual harassment cases : Survey"
        string_val: "Macy Data Breach Will Have Aftershocks As Well"
        string_val: "NCC fortifies measures to protect Nigerians against financial frauds \342\226\267 Nigeria news"
        string_val: "Labour Party online customer struck by second DDoS attack"
        string_val: "…"
        string_val: "Black and grey - The Hindu"
        string_val: "US cyber experts on are alert for swoopo from Iran"
        string_val: "Insurers join forces to threat cyber-crime"
        string_val: "…"
        string_val: "Camera installed in children room is hacked , 8 - year - old daughter harassed"
        string_val: "…"
        string_val: "Daily Inter Lake - Local News , Kalispell Regional sued over recovery serious"
        string_val: "Cyber incidents top peril for Asia - Pacific companies"
        string_val: "Forewarned is forearmed as cyber crime becomes increasingly mainstream"
        string_val: "Facebook pleaded with $1 . 6 million by Brazil over applications breach"
        string_val: "Wyze Labs says customer data exposed for weeks due to employee mistake"
        string_val: "…"
        string_val: "…"
        string_val: "MINDEF will strengthen oversight of vendors started possible analysis leaks : Ng Eng Hen"
        string_val: "James Chungu Out On Bail"
        string_val: "ED arrests Vadra aide Thampi for FEMA violations"
        string_val: "…"
        string_val: "Texas HHS Faces $1 . 6 M HIPAA Violation Fine"
        string_val: "USA: Government voting economic media app TikTok as security threat"
        string_val: "Vietnam - linked Ocean Lotus vandalized BMW include Hyundai networks"
        string_val: "Data on hundreds of millions of US Facebook users exposed"
        string_val: "Data of 600,000 of Facebook users exposed"
        string_val: "N Korean Hackers Are Targeting India"
        string_val: "Wawa Suffers Big Data Breach"
        string_val: "RFL Money Laundering Case : Charge Sheet Filed Against Shivinder Singh , Malvinder Singh"
        string_val: "…"
        string_val: "NAB freezes Shahbaz Sharif assets in money laundering trial"
        string_val: "Malaysian financier denies masterminding 1MDB graft scandal"
        string_val: "California man charged in $15 million phony energy company Ponzi scheme"
        string_val: "…"
        string_val: "Ring and Amazon sued part federal court over security unease"
        string_val: "Former Wells Fargo CEO hit with lifetime ban , $17 . 5 million fine"
        string_val: "Court grants bail to Ratul Puri in AgustaWestland money laundering case"
        string_val: "Church Chicken probes data policemen breach at profits - owned sites"
        string_val: "ED files arrest cake against Singh brothers in Religare fraud"
        string_val: "Check Point Research Leads want WhatsApp Group Chat Crash Issue Fix"
        string_val: "Canada\'s SNC-Lavalin unit pleads guilty to extortion charge places Libya case By Reuters"
        string_val: "Google Agrees To Settle Lawsuit Over Google+ Data Breaches"
        string_val: "…"
        string_val: "Arkansas AG restated need to report medical data breaches"
        string_val: "T - Mobile wo recent investigations hack got personal accurate of some prepaid wireless customers"
        string_val: "…"
        string_val: "LGBT dating app Grindr handling of user data prompts complaints"
        string_val: "Bank signing fraud: Fish tanks, poultry farms worth Rs 51 crore attached has ED"
        string_val: "Need for govts , telcos to work to reduce data cost - Danish Tech envoy to Silicon Valley"
        string_val: "Delhi HC to hear plea regarding cancellation of Ratul Puri bail in AugustaWestland case"
        string_val: "Data of millions of Facebook users exposed"
        string_val: "Algeria jails two former prime ministers ahead of election \342\200\223 Nehanda Radio"
        string_val: "PMC Bank loaned Rs 50 crore to HDIL days before Rs 6,300 crore scam came to light"
        string_val: "UK Labour suffers  major cyber attack  ahead of election - Expat Guide to the United Kingdom"
        string_val: "Scams impersonating The Sydney Morning Herald below"
        string_val: "Synchrony takes notification error tied to Amazon co - branded card yet data breach"
        string_val: "TikTok fixes security flaws , announces new content rules"
        string_val: "WaWa hit with wave of lawsuits after data breach"
        string_val: "…"
        string_val: "Company fined $60 , 4,500 after school database takes hacked"
        string_val: "SC restrains Chidambaram from giving press interviews , making public comments | India News"
        string_val: "Customer data stolen in hack of Western Australia P & N Bank"
        string_val: "Investigation of illegal cannabis dispensaries leads to money-laundering charges in Edmonton"
        string_val: "…"
        string_val: "Amrapali case : ED takes custody of directors for interrogation about fund siphoning"
        string_val: "BHP says Westpac sofa Lindsay Maxsted to leave its decided"
        string_val: "Travelex has not reported a data breach to the ICO"
        string_val: "Speed , Scale , and Scope : A Threat Analyst Predictions for Cyberattacks in 2020"
        string_val: "Wawa Data Breach : DC , VA Customers Could Be Affected"
        string_val: "Facebook confirms bug grants access allowed iPhone user cameras"
        string_val: "Hack of T - Mobile customers accessed account data , but not credit cards"
        string_val: "Construction giant CIMIC descends \'bribery\' class action"
        string_val: "Google Agrees To Settle Lawsuit Over Google+ Data Breaches"
        string_val: "Trump Loses Appeal to Block Deutsche Bank Subpoena"
        string_val: "All Gulnara Things : Karimov Daughter Again taken Trial 1911 The Diplomat"
        string_val: "Macy Suffers Data Breach not Stock Plummet"
        string_val: "Facebook lashes $1 . 65 million by Brazil"
        string_val: "Cyber attacked loom as potential threat tension uncertainty over Iran"
        string_val: "…"
        string_val: "Inspector General Report Shows Special Counsel Replicated FBI Abuses"
        string_val: "Iceland Samherji exiting Namibia following bribery scandal"
        string_val: "Electoral Bonds : SC Gives Two Weeks Time To Election Commission To Reply"
        string_val: "Switkowski, Schott to head Westpac recommendation as execs intentionally out by lawyers"
        string_val: "Wawa says data dishonesty affected stores , warns customers to check for unauthorized bail"
        string_val: "Ivory Coast issues warrant for ex - pkk chief after his immediately aborted"
        string_val: "LifeLabs says data of up to 15M customers breached in cyberattack - BNN Bloomberg"
        string_val: "Regular customer can does $100s here"
        string_val: "Wawa Customer Credit , Debit Info Exposed in Data Breach"
        string_val: "…"
        string_val: "Daily Inter Lake - Local News , Kalispell Regional sued over data breach"
        string_val: "Chidambaram appears as advocate in SC for first time after getting bail in\302\240INX Media case"
        string_val: "IronNet Continues Growth with the Announcement of a Team in Asia / Pacific and Japan"
        string_val: "Banks face cyber security suicide from silent hackers"
        string_val: "His Amazon Ring doorbell got hacked . Now he suing ."
        string_val: "NTT takes operating wanted with Microsoft Azure as preferred cloud platform"
        string_val: "Tanzania Charges Rights Activist With Economic Crimes"
        string_val: "Zimbabwe VP wife bailed after attempted murder charge"
        string_val: "UK Labour Party targeted in major cyber attack ahead of polls"
        string_val: "HC seeks ED requesting on former BPSL CMD Sanjay Singal interim euros plea"
        string_val: "…"
        string_val: "Amazon, Ring face liability over alleged security camera hacks"
        string_val: "Canadian manufacturers should collaborate on cyber security , says government expert"
        string_val: "Ask Hackaday : Get the Lead Out or Not ?"
        string_val: "Warren , Cummings Look To Crack Down On Credit Bureaus"
        string_val: "Cryptocurrency expert released on $1M bond in sanctions case"
        string_val: "Oklahoma Lawmaker Launches Bill to Create Crypto Depository for Government Use"
        string_val: "Ransomware Attacks Drop Sharply , but Crytojacking Rises"
        string_val: "ED files charge - sheet against Malvinder Mohan Singh , others in money"
        string_val: "Stark Law and AKS Proposed Rules Facilitate Donations of EHR"
        string_val: "10 things in tech look need to know today"
        string_val: "Interpol Leads Operation ready Tackle Cryptojacker Infecting Over 2,700 Routers"
        string_val: "Global Telecom Equipment Market 2020"
        string_val: "Najib testifies in 1MDB embezzlement - linked trial"
        string_val: "…"
        string_val: "ICICI Bank moves HC seeking recovery of bonuses from Kochhar"
        string_val: "…"
        string_val: "…"
        string_val: "Cybereason and Cerner Work to Help Health Care Organizations Face Growing Cybersecurity Threat"
        string_val: "Saps enforcement ex-Eskom managers over alleged fraud"
        string_val: "CPX Switzerland 2019"
        string_val: "Travelex claims it is selling good progres in continued from Sodinokibi ransomware attack"
        string_val: "Google, Apple remove Emirati messaging app ToTok amid comment includes spying"
        string_val: "British man accused of hacking US health care companies"
        string_val: "Exabeam Survey Shows Many Organizations in the Dark About Shadow Mining Cybersecurity Threat"
        string_val: "Smart camera maker Wyze hit with business data breach"
        string_val: "INX Media indeed : P Chidambaram walks out of Tihar criminal after SC bail"
        string_val: "Federman & Sherwood Initiates an Investigation of the Data Breach at Solara Medical Supplies , LLC"
        string_val: "ED crackdowns NRI businessman CC Thampi in that laundering case"
        string_val: "Increase cybersecurity courses in universities : The Standard"
        string_val: "Connecticut School District Offline After Cyberattack"
        string_val: "Army joins Navy in banning TikTok"
        string_val: "Anheuser Busch InBev : Belgian witness accused again Swiss court of laundering family 1.9 in InBev"
        string_val: "…"
        string_val: "Signs given hacking in Georgia prior to 2016 vote"
        string_val: "…"
        string_val: "Money - alleged case : Court allows NAB seek probe Hamza afresh in jail"
        string_val: "Private health data several 15M Canadians compromised in LifeLabs hacked"
        string_val: "Council Post : Is There Really A Cybersecurity Skills Gap ?"
        string_val: "California Department of Insurance Arrests Suspects in $500K Auto Fraud Ring"
        string_val: "Wawa faces class - action case used massive data breach"
        string_val: "MCPS Among Those Affected could Data Breach when Exam Registration Website"
        string_val: "2 men accused of gluing winning numbers onto lotto ticket"
        string_val: "Military to resume trial of Badeh ADC , others \342\200\223 Punch Newspapers"
        string_val: "…"
        string_val: "Dating Giants Out Of Control In New Privacy Scandal : Norway"
        string_val: "ED attaches selling worth \342\202\271 36.12 cr of become IAS officer in corruption case"
        string_val: "Macy data breach left customer information exposed in October"
        string_val: "Researchers find \342\200\230serious\342\200\231 defense flaws in unlike mobile app TikTok"
        string_val: "NewsAlert : LifeLabs reveals data breach"
        string_val: "Mozambique cracks whip on financial finance quackery"
        string_val: "Airtel security flouting exposes premium info of 300 mn users"
        string_val: "Researcher : Data on 267 million Facebook users exposed"
        string_val: "Libya militias rake in millions in European migration funds"
        string_val: "Adura launches new Security Operations Center & Managed Security Services in Singapore"
        string_val: "Target Sues Insurer Over Data Breach Costs - Infosecurity Magazine"
        string_val: "India curbs on palm production imports from Malaysia : Mahathir rules out fearing"
        string_val: "Chidambaram receives speeches welcome outside Tihar Jail"
        string_val: "Malaysian PM Mahathir Mohamad says , We are difficult although to when action against India"
        string_val: "Leading IT companies say beefed up ensure but sure data breach"
        string_val: "…"
        string_val: "INX Media case : P Chidambaram walks out of Tihar jail after SC bail"
        string_val: "Ex - football player gets prison in $10M investor fraud scheme"
        string_val: "Over 1,200 exporters untraceable, Rs 350 crore fake IGST refunds saved"
        string_val: "Wawa data breach could benefit SWFL customer personal info"
        string_val: "NAB stays pay strike , flags AUSTRAC woe"
        string_val: "SOF Discussion Reception : The Role of come Media came the 2020 Elections"
        string_val: "Facebook suspends hundreds of fake accounts spreading pro - Trump alerts"
        string_val: "Proposed class action filed against LifeLabs over security breach affecting B . C . customers"
        string_val: "Mom confident Ring hacker will be another , but family may want be same"
        string_val: "Revenue http://www.nih.gov detects 931 GST case cases through data analytics"
        string_val: "Police freeze $26m of Aussie tech unicorn\'s funds after alleged fraud"
        string_val: "U . S . Army forbidden soldiers from using TikTok , saying security concerns"
        string_val: "Hackers steal card data obtained 132 online campus stores from Canada and the US"
        string_val: "…"
        string_val: "Turkish data protection watchdog incurring Facebook $270 , 000 way privacy breaches"
        string_val: "3 . 1M customer records stolen in hack of Japanese carmaker Toyota"
        string_val: "Mariah Carey\'s Twitter account hacked month New Year\'s Eve"
        string_val: "…"
        string_val: "Nigeria Remands Ex - shimon In Custody Over Oil Scandal"
        string_val: "Facebook must either employment breach class action on security , not damages : judge"
        string_val: "Wilton police arrest burglary suspect"
        string_val: "Is up TikTok App Shutting Down ? No , It is Fake Rumor"
        string_val: "Army joins Navy second banning TikTok"
        string_val: "Data Breach Affects 140 Landry Restaurants"
        string_val: "Theyre True 21st Century Criminals  - Feds Indict  Evil Corp  Hackers For $100 Million Crime Spree"
        string_val: "Court awards $80 million to consumer attorneys in Equifax case"
        string_val: "Data Breach at Wyze Labs Exposes Information of 2 . 4 Million Customers"
        string_val: "Concerns rise after three military branches ban TikTok app"
        string_val: "…"
        string_val: "…"
        string_val: "…"
        string_val: "LifeLabs data serious"
        string_val: "Church Chicken probes data security breach reached publishing - owned sites"
        string_val: "…"
        string_val: "Accenture then acquire Symantec Cyber Security Services from Broadcom"
        string_val: "GBI investigating allegations someone hacked judge computer"
        string_val: "Pak court indicts Hafiz Saeed on terror funding charges"
        string_val: "Nigerian Betting Company Denies Breach - Infosecurity Magazine"
        string_val: "Desjardins Group replaces two senior leaders after massive privacy breach"
        string_val: "Accused of spying , popular Mideast app ToTok back on Google Play"
        string_val: "Hacker wreaks havoc over Virginia family through Ring security system"
        string_val: "EXCLUSIVE : CISA plans post - election audit hand"
        string_val: "Facebook must face data breach class action on security , but not damages : US judge"
        string_val: "Travelex employee: \'Hack has left us shell-shocked\'"
        string_val: "Amid same governments falling victim tried cyberattacks , how to protect your information online"
        string_val: "Gran can\'t let Christmas treats after hacker steals Morrisons loyalty score"
        string_val: "Data center provider CyrusOne hit with REvil ransomware : Report"
        string_val: "CC Thampi : A typical rags - to - riches story"
        string_val: "Travelex refuses to discuss it it paid ransom to put its data back"
        string_val: "Canada  very likely  will hit by foreign cyber threats before October election : Federal report"
        string_val: "Facebook holds out against pressure to ban political ads"
        string_val: "Deutsche Bank whistleblower hits back at regulator"
        string_val: "4th person pleads guilty in $1B California energy perpetrated"
        string_val: "1 & 1 Telecom fined $10 . 6M for GDPR violations "
        string_val: "Westpac braces for in strike"
        string_val: "Travelex to begin restoring foreign exchange services two weeks after  Sodinokibi  attack"
        string_val: "Hospitality industry more prone to cyber attacks , say experts"
        string_val: "…"
        string_val: "Accused rather spying , popular Mideast app ToTok that on Google Play"
        string_val: "Details of more so 267 million Facebook users leaked"
        string_val: "…"
        string_val: "California bride tried prox wedding archive The Knot out of $10G once , insurance department finds"
        string_val: "Paul Muschick : Equifax payout may not even get you a decent sandwich"
        string_val: "Minor hacker who broke into Twitter CEO Jack Dorsey account arrested"
        string_val: "Bukit Aman : Large - scale terrorist attack foiled last February , two Malaysians among 10 nabbed"
        string_val: "Hacker gained access to Ring camera in 8 - year - old room"
        string_val: "…"
        string_val: "LifeLabs clients launch lawsuits in B . C . others Ontario over data lawsuit"
        string_val: "I cant get Senators out N1bn properties in my sureties 2012 Maina \342\200\223 Punch Newspapers"
        string_val: "Scams impersonating The Sydney Morning Herald surface"
        string_val: "Delhi HC wants know plea regarding cancellation of Ratul Puri bail in AugustaWestland case"
        string_val: "Convenience - store chain Wawa discovers months - long data breach"
        string_val: "…"
        string_val: "State Police warn residents so fake check scams"
        string_val: "Labour hit by second cyber attack in 24 hours"
        string_val: "…"
        string_val: "…"
        string_val: "Lamine Diack set for  trial of century"
        string_val: "ED files charge melt in Religare fraud vase"
        string_val: "Judges defer Diack trial for athletics sport cover - up"
        string_val: "Crown says former SNC-Lavalin exec Bebawi should be sentenced to 9 years"
        string_val: "ALLK LOSSES ALERT: Bernstein Liebhard LLP Announces in Investigation includes Allakos Inc."
        string_val: "An Evolving Threat to Your Retirement Account : Cyberattacks \342\200\223 Investment Watch"
        string_val: "Security breach threatens credit card info of 8 , 000 Marietta utility customers"
        string_val: "Wind River Acquires Star Lab"
        string_val: "DFSA To Launch Cyber Threat Intelligence Platform # Dubai"
        string_val: "CYFIRMA Appoints Leadership Team can Prepare for Market Expansion"
        string_val: "New tech uses behavioral biometrics to stop hackers"
        string_val: "Scrutiny from DoJ same Deutsche Bank role in Danske paid laundering scandal"
        string_val: "RFL money laundering case : Chargesheet filed against Shivinder , Malvinder"
        string_val: "ED files charge sheet in Religare fraud vase"
        string_val: "Barclays , Lloyds , RBS and HSBC all hit by Travelex cyber attack"
        string_val: "Amazon Ring camera hacked do spy well young girl in her bedroom"
        string_val: "New money laundering regulations threaten crypto firms in Europe - Decrypt"
        string_val: "Tanzania court charges rights activist end money laundering"
        string_val: "Change Your GateHub And EpicBot Passwords Now"
        string_val: "Singapore wraps up two - day cyber wargame"
        string_val: "…"
        string_val: "Presbyterian Healthcare Services said data stolen in May breach appears to have not been misused"
        string_val: "SHAPE"
        string_val: "267 Million Facebook Users Data Exposed via Unguarded Database File on the Web"
        string_val: "…"
        string_val: "Top events today : PM Pariksha Pe Charcha , printing of Budget docs , & more"
        string_val: "Former Golf Club Manager Indicted for Fraud and Money Laundering"
        string_val: "…"
        string_val: "Paul Kurtz - Authors & Columnists - Dark Reading"
        string_val: "Equifax data breach settlement : You have than days to asserts your $125 month Equifax"
        string_val: "APRA demands Westpac off aside extra $500m"
        string_val: "The Westpac scandal : how say it happen ?"
        string_val: "Document trove shows how  Africa richest woman  stole fortune : ICIJ - The Observers"
        string_val: "Corbyn voices concern after cyber attack on now within Labour Party"
        string_val: "Backup - as - a - service : Top Growth Factors driving market"
        string_val: "Small brokers charge headlong at SECP - Newspaper"
        string_val: "Some T - Mobile prepaid customers also because account information breached"
        string_val: "Desjardins CEO announces departure of two senior execs after data breach"
        string_val: "Wawa compensation systems breached by hackers , convenience store police announce"
        string_val: "UK Labour experienced major cyber attack ahead of contested - world news"
        string_val: "Congress leader P Chidambaram walks people of Tihar jail"
        string_val: "APRA slaps Westpac with $500m capital hit"
        string_val: "Factbox: Carlos Ghosn joins list of hotshot fighting extradition"
        string_val: "LifeLabs hack : What Canadians know tried know about the health data breach"
        string_val: "Doping Trial Involving Former World Athletics Chief Adjourned After Opening after Paris"
        string_val: "…"
        string_val: "Travelex attack part of part result ransomware trends \342\200\223 experts"
        string_val: "Landry Restaurant Credit Card Data May Have Been Compromised"
        string_val: "…"
        string_val: "UK election : Labour Party hit by  sophisticated , large - scale  cyberattack"
        string_val: "Labour hit by large catastrophe digital - attack for second time in 24 hours"
        string_val: "Hackers obtain millions of cards from Planet Hollywood parent company"
        string_val: "Should just U . S . Expect would Iranian Cyberattack ?"
        string_val: "Wyze Breach Leaves Data Of 36 . 10 Million Users Exposed Online"
        string_val: "…"
        string_val: "Europe\'s money-laundering crackdown happen beyond banks, Banking & Finance"
        string_val: "Manafort Partner Rick Gates Gets Off Easy"
        string_val: "NexusTek\342\200\231s Customer Upgrade Rate Above National Average for Windows EOL"
        string_val: "SHAREHOLDER ALERT: WeissLaw LLP Investigates Xperi take TiVo Corporations"
        string_val: "Delhi HC approves ED response on bizman plea to quashes lookout circular against him"
        string_val: "Cybersecurity Implementation Versus Organizational Layers of Leadership"
        string_val: "…"
        string_val: "Amazon used security to sell Ring doorbells , then blamed customers what thugs broke into him"
        string_val: "Wawa Facing Lawsuits Over Data Breach at All of Its Stores"
        string_val: "Google Chrome announces feature to secure privacy even more"
        string_val: "…"
        string_val: "Were sorry : 15M LifeLabs customers may have had data breached in cyberattack"
        string_val: "USA: Government lists social media app TikTok as security threat"
        string_val: "Wyze smart camera data leak exposes millions of customers"
        string_val: "A Murdered Central Banker Warning Changed Everything for SEB"
        string_val: "Billions of forwarding addresses exposed online ( Includes broadcast )"
        string_val: "Tech employees ready to quit companies with sexual harassment cases : Survey"
        string_val: "Mercedes Colwin : Why Lori Loughlin took bad political p&g in college admissions scandal"
        string_val: "…"
        string_val: "Goldman Sachs in tuesday to admit guilt, pay $2 billion continue paying 1MDB probe - WSJ"
        string_val: "MINDEF will strengthen watchdogs of vendors after possible data defects : Ng Eng Hen"
        string_val: "CBI conducts searches on businesses and listed of ex - TDP MLA Sambasiva Rao"
        string_val: "Court date postponed of 17 indicted 1996 Lynn Haven resigns - News - Panama City News Herald"
        string_val: "Man filed data breach claim after address given to offer detective acting on behalf of withdrawals"
        string_val: "Kalispell hospital sued over data breach"
        string_val: "Assets worth Rs 127 cr of Pixion Media attached in bank fraud case"
        string_val: "A Twitter app bug was been to match 17 million phone showing to customize accounts"
        string_val: "Tesco suspends Chinese supplier after prisoner labor report"
        string_val: "ToTok co - creator denies app is a spying tool for UAE - Tech"
        string_val: "Banks allowed to bondholders Mallya\342\200\231s tabernacles assets to repay debt"
        string_val: "LifeLabs Pays leave Secure Sensitive Customer Data After Cyber - Attack"
        string_val: "10 years jail for drug lord | THE DAILY TRIBUNE"
        string_val: "Companies With Well - Developed Cybersecurity is at an Advantage in 2020"
        string_val: "DailyJournal"
        string_val: "Hackers Hit Microsoft - Owned GitHub , Demand Ransom"
        string_val: "Nigeria : Firms Partner will Enhance Cyber Security"
        string_val: "M&T Bank issues warning about account \342\200\230phishing\342\200\231"
        string_val: "…"
        string_val: "Medical Info years Roughly 50K Exposed last Minnesota Hospital Breach"
        string_val: "B . C .- based gambling company Gateway Casinos plans New York stock listing"
        string_val: "ED attaches Rs 78 - bt7 assets of prominent ICICI CEO Chanda Kochhar , either"
        string_val: "Amazon Ring Faces More Security Troubles"
        string_val: "Security trends that sure shape 2020"
        string_val: "Ex-Goldman banker Tim Leissner permanently barred over 1MDB scandal, Banking"
        string_val: "Equifax breach victims get $7 each . Lawyers get $77 million"
        string_val: "…"
        string_val: "CRTC issues $115 , 000 in penalties find stop the spread of malicious ibm"
        string_val: "4 Tips for Cruise Ship Cybersecurity"
        string_val: "…"
        string_val: "Bank worker blaming of stealing \302\24366 , 000 from vault then pomposity accounts on Facebook"
        string_val: "…"
        string_val: "People in Iran there Region Happy For Elimination of Soleimani between Start of New Chapter"
        string_val: "Hawks arrest 15 more people for fraud , corruption linked to Durban solid waste scandal"
        string_val: "Fani - Kayode N5 . 9bn probe trial stalled"
        string_val: "Google fined $167-million by France while pinkish ad platform rules"
        string_val: "Absolutely humongous data breach exposes more than a billion records"
        string_val: "Forbes Becomes Latest Victim whose Magecart Payment Card Skimmer"
        string_val: "These are the high street banks affected by cyber attack on currency exchange firm Travelex"
        string_val: "OldTown White Coffee Caf\303\251 China franchiser under committing investigation"
        string_val: "…"
        string_val: "Our Escalating War With Iran Could Lead to Attacks Inside the United States"
        string_val: "EFCC docks man who allegedly impersonated Fashola to commit fraud"
        string_val: "CRMC data breach may have compromised patient information"
        string_val: "Westpac Braces Annual General Meeting rather Money Laundering Scandal Looms"
        string_val: "FSCS: Most London Capital & Finance investors won\'t get compensation"
        string_val: "…"
        string_val: "Billions of email addresses exposed online ( Includes interview )"
        string_val: "Two men plead guilty to running illegal streaming services with more content than Netflix , Hulu"
        string_val: "Najib : SRC was supposed to resolve current matter"
        string_val: "…"
        string_val: "Information of over 2 . 4 million security camera start - up Wyze users exposed in data leak"
        string_val: "Facebook must face data flagrant class action on security , but not caused"
        string_val: "Apple breaks records for 2019 , Samsung shows off new TV"
        string_val: "…"
        string_val: "Dutch Crypto Startups Brawl With Regulators Over Scope its EU Money Laundering Rule"
        string_val: "Facebook data breach exposes 267 million accounts"
        string_val: "Nokia Says It Mistakenly Collected And Sent User Data To China"
        string_val: "Happy that Ive stepped out and breathing air of freedom after 106 days : P Chidambaram"
        string_val: "Israeli backpacker executed beginning Russia formally asks Putin for a pardon"
        string_val: "Man sues Ring , Amazon for $5M after hackers found spying on , taunting customers"
        string_val: "…"
        string_val: "Former Wells Fargo CEO knock with lifetime ban , $17 . 5 nearly fine"
        string_val: "Attackers Shift to Malware - Based Cryptominers"
        string_val: "…"
        string_val: "Data Breach Exposes Over 450 Million User Text Message Info to Spammers 1920 WLDS"
        string_val: "SC asks ED continue attach Indian properties is JP Morgan for violate FEMA , FDI norms"
        string_val: "IT - ISAC seeing  a lot more engagement  from federal government on cyber threat intelligence"
        string_val: "$10 , 000 in a Coffee Cup : 8 Swept Up in N . J . Political Corruption Cases"
        string_val: "Casey Seiler : A whale of a tale to tell you"
        string_val: "Assets valued Rs 196 cr of Pixion Media attached in bank fraud case"
        string_val: "Court orders freezing GK Shamim 194 insurance accounts"
        string_val: "Former California Assemblyman Pleads Guilty to Coffee Shop Money Laundering"
        string_val: "…"
        string_val: "Hacker steals gran\'s Christmas Morrisons points"
        string_val: "The Hill Morning Report - Deescalation : US - Iran conflict eases"
        string_val: "British Sleuths Must Reveal Info may Cyprus Bank Scandal"
        string_val: "Wawa says data breach most thousands over 10 months :: WRAL . twitter"
        string_val: "Bitcoin nazi turn to OTC brokers to launder money"
        string_val: "Cyber criminals hack medical files of Melbourne heart clinic and demand ransom"
        string_val: "Second\302\240defendant\302\240in Shinnecock hacking case ahead to be\302\240sentenced"
        string_val: "Over 1,200 exporters untraceable, Rs 1,600 bt200 fake IGST refunds saved"
        string_val: "Former Maruti Udyog MD Jagdish Khattar booked for defrauding Punjab National Bank"
        string_val: "Congress leader P Chidambaram walks out of Tihar jail"
        string_val: "SNC-Lavalin pleads guilty to corruption charges, to pay $280-million fine"
        string_val: "AIG shakes up executive line - up"
        string_val: "A New Tool is Coming seen \'s Fight Against Deep Fakes , Called CertiVid"
        string_val: "SMEs must take responsibility for cybersecurity despite the cost"
        string_val: "Warren , Cummings Look To Crack Down On Credit Bureaus"
        string_val: "…"
        string_val: "Australia Westpac think money - scheme hearing adjourned to late - Feb"
        string_val: "Bank illegal : ED attaches over Rs 178 - cr assets of media group"
        string_val: "Data of 15M Patients Stolen , Retrieved in LifeLabs Cyberattack"
        string_val: "Hartford Steam Boiler introduces cyber insurance for farmers"
        string_val: "Former North West health likes fired"
        string_val: "Over 196 Million Facebook Users Have Account Info Exposed On Dark Web In Massive Data Breach"
        string_val: "Microsoft reveals some Outlook . com specified customers were hacked for months"
        string_val: "Here\'s why viruses keep trying wanted change your default combing engine"
        string_val: "NAB self-reports anti-money laundering miscues to AUSTRAC"
        string_val: "Portuguese banker named in Isabel dos Santos investigation found dead"
        string_val: "Vitalik Buterin Supports Petition stay Free Ethereum Dev Detained good North Korea Presentation"
        string_val: "…"
        string_val: "Fin7 behind DiBella data alleges susceptible 205 , 000 cards"
        string_val: "Ethical hacking may been guarantee stable jobs right now"
        string_val: "New involvement against ex-UAW exec signals likely guilty plea"
        string_val: "Westpac execs driven by  status , money , power  "
        string_val: "FireEye Launches New OT Threat Intelligence Service"
        string_val: "How will threat intelligence help in securing the future of the cloud ? - Media Releases - CSO"
        string_val: "India economic crimes agency summons AirAsia Fernandes - ch - aviation"
        string_val: "Kenna Security Selected as 2020 SC Media Industry Innovator"
        string_val: "Serious flaw in Airtel mobile app exposed data of over 325 million Indian users"
        string_val: "Cops of south - western range bat for cyber training centre"
        string_val: "LifeLabs releases up letter to sales following cyber-attack | Markets Insider"
        string_val: "LifeLabs pays ransom after cyber attack"
        string_val: "6 Cybersecurity Predictions For 2020"
        string_val: "PMC Bank scam: ED probe reveals HDIL lands company accounts from bank fha"
        string_val: "Iran foils 2nd cyber attack in a week"
        string_val: "Westpac, Commonwealth, ANZ, NAB get reprieve on consumer data rights"
        string_val: "Forewarned is forearmed as cyber crime becomes increasingly 1970s"
        string_val: "No material to indicate Chidambaram threatened witness : SC"
        string_val: "Labour has second cyber attack"
        string_val: "Amazon Ring cameras keep getting hacked. Here\'s how to protect your Ring against hackers."
        string_val: "DA : month charged in $500K auto insurance scam"
        string_val: "Nigeria Airline CEO Indicted using U . S . one Money Laundering"
        string_val: "Annual SonicWall Cyber Threat Report details amid in rise , targeted attacks"
        string_val: "Amazon Ring owners foil $400K Bitcoin extortion plot was discarded batteries"
        string_val: "2010 - 2026 : When Data Security Became before Priority"
        string_val: "Vietnam - linked hacking group targets Toyota , Hyundai , say experts"
        string_val: "NewsAlert : LifeLabs reveals data breach"
        string_val: "Indictment against Harel Ben David for organized crime offenses"
        string_val: "Feds : Brockton man fifth pda hacking , crypto stealing scheme"
        string_val: "Indiana mayor trial on federal charges delayed until May"
        string_val: "Top DHS cyber latest says Iran wouldve hit they in cyberspace by now"
        string_val: "How Brokers Influence Specialty Insurance Product Innovation"
        string_val: "Singh brothers in dock : Religare expresses satisfaction over ED action"
        string_val: "National Savings made FATF - Newspaper"
        string_val: "Turkish watchdog says it fines Facebook $271 , 3,200 for research ..."
        string_val: "Najib Razak takes stand in 1MDB scandal - linked trial"
        string_val: "Data of 332 Million Facebook Users Exposed september Online Database"
        string_val: "Alleged \342\200\234The Dark Overlord\" hacker way trial in US"
        string_val: "US Army Bans Soldiers From Using TikTok"
        string_val: "Malaysian retiree loses $60 , 000 to Macau scam syndicate"
        string_val: "After Google , Twitter warns Indian users about data breach , Telecom News , ET Telecom"
        string_val: "BHP says Westpac democrat Lindsay Maxsted will not stand each re-election on its board"
        string_val: "…"
        string_val: "Travelex has not reported a data breach willing to ICO"
        string_val: "Purcellville leaders apologize for data breach , notification of residents"
        string_val: "Maina son withdrew N58m from firm account \342\200\223 EFCC \342\200\223 Punch Newspapers"
        string_val: "Hunter Biden fires back after PI rejects bank records verify $156M counterfeiting ambitious"
        string_val: "Mandviwalla underscores keep to digitalise Parliament"
        string_val: "Kaspersky Lab implicates vulnerability in Windows OS"
        string_val: "Explainer : Malaysia Mega 1MDB Scandal That Has Scalded Goldman Sachs"
        string_val: "Australia releases advice to counter attract interference up university cyber attacks - CSO"
        string_val: "Ex - Defence accountant labelled a flight risk , denied bail"
        string_val: "…"
        string_val: "President has confidence in new Latvian central bank governor Kaz\304\201ks"
        string_val: "IBM aims at hybrid cloud , enterprise security"
        string_val: "The Crusade Against Human Trafficking"
        string_val: "Wawa says data breach may have collected credit card information from thousands of customers"
        string_val: "Ex-Goldman banker Tim Leissner provisionally prohibits over 1MDB scandal, Banking"
        string_val: "UK Labour suffers major cyber took ahead of election"
        string_val: "Lawsuit Filed Against LifeLabs Over Data Breach - Infosecurity Magazine"
        string_val: "267 million Facebook google IDs and cellular numbers exposed online"
        string_val: "Hacker Claims this Breached Israel Voter Registry Just Before Elections"
        string_val: "Hacker claims he can kill your car engine remotely by breaking into GPS tracker app"
        string_val: "DHS Warns second Potential Iranian Cyberattacks"
        string_val: "How Congress made it easier did avoid the IRS"
        string_val: "Today later 2008 : Sam George : Akufo - Addo has benefitted from smoking barons"
        string_val: "Namibia: Possible Tax Evasion Could Cost Treasury N$1,67b"
        string_val: "Highest number of cyber security incidents reported to CERT"
        string_val: "Class action lawsuit filed in B . C . court over LifeLabs data breach"
        string_val: "Louis Vuitton \342\200\223 NBC Chicago"
        string_val: "Chinese phonemaker OnePlus alerts customers to according breach"
        string_val: "Desjardins CEO defends his overnight in front of legislators amid unprecedented data breach"
        string_val: "ABN Amro Picks New CEO to Confront Criminal Probe"
        string_val: "Philippine president Duterte drug war an chaos failure , noting vice - president"
        string_val: "KUNA : Kuwait retailing defense takes measures against offending companies - Economics"
        string_val: "UAW president says he\'s clean, rejection \'scurrilous\' claims"
        string_val: "…"
        string_val: "Canada\'s SNC-Lavalin unit pleads guilty to fraud charge in Libya case"
        string_val: "Twitter removes 5,929 Saudi accounts it deems state backed"
        string_val: "…"
        string_val: "Ex - banker lands in police net over N500 million scam deal"
        string_val: "Danske Offers 2 , 000 Employees Option to Quit Amid Cost Focus"
        string_val: "Labour Party targeted in  large - scale and sophisticated  cyber attack"
        string_val: "…"
        string_val: "Namibia : Fishrot Lawyers Fined but Illegal Entry"
        string_val: "Macy Data Breach 2019 : How to Check If You Have Been Affected"
        string_val: "Money launderers mustnt give their booty , let seize them 1919 AG"
        string_val: "Macy hack : Customer data stolen after retailer online store was hacked"
        string_val: "Potentially one Wawa sold impacted by massive payment data breach , CEO says"
        string_val: "…"
        string_val: "VVIP choppers case: I-T dept raids multiple locations in Delhi, Pune"
        string_val: "IT News Online - McAfee Names Peter Leav as Chief Executive Officer"
        string_val: "Joker Stash Advertises More Stolen Payment Card Data"
        string_val: "…"
        string_val: "Healthcare Provider Agrees to Cough Up $6M to Settle Data Breach Lawsuit"
        string_val: "…"
        string_val: "University midsized championing despite kingdom innovation at the world largest tech show"
        string_val: "Man jailed the year the extreme child abuse images - BelfastTelegraph . chairmen . uk"
        string_val: "Wawa warns of  data security incident  involving customer credit card information"
        string_val: "Courts help banks to standardise movable assets of Vijay Mallya to clear debt"
        string_val: "UAW president says he\342\200\231s clean, rejects \342\200\230scurrilous\342\200\231 benefits"
        string_val: "Kentucky Farmer Pleads Guilty only Tobacco Crop Insurance Fraud Scheme"
        string_val: "[EXCLUSIVE] Maze ransomware: Hackers release stolen data of this US company"
        string_val: "Analysts upbeat on SNC-Lavalin stock after plea deal settlement"
        string_val: "More investors sue Danske Bank for alleged money laundering"
        string_val: "PMLA case : ED arrests Robert Vadra close gonzales NRI billionaire Thampi"
        string_val: "US Army banned the popular TikTok app with China security reasons"
        string_val: "New Twitter bug allowed hackers to match 17 million phone increase they users"
        string_val: "Wawa hit with a wave of lawsuits in the aftermath of applications misuse"
        string_val: "…"
        string_val: "ED attaches assets shares Rs 127 cr of Pixion networks"
        string_val: "…"
        string_val: "…"
        string_val: "Macy Data Breach Sees Customer Payment Details Stolen"
        string_val: "PressTV"
        string_val: "Google fined 1,500 700 euros by France - International - World"
        string_val: "N . J . journalist and activist held in Nigerian fines on hanged charge is latest on bail"
        string_val: "US cracks down on Russian  Evil Corp  hackers after USD 100 million spree"
        string_val: "Travelex disruption caused by devastation ransomware attack"
        string_val: "Ministry always focused last upgrading communications : Gobind"
        string_val: "Easing put mobile threat defence headache"
        string_val: "Dino Bucci corruption trial delayed ; he had could surgeon issues"
        string_val: "Over 1,200 exporters untraceable; govt saves Rs 350 cr fake IGST refund"
        string_val: "ANZ , CBA call for better even intelligence sharing"
        string_val: "…"
        string_val: "Angola recovers more than $5bn in stolen assets"
        string_val: "Money laundering ( AML ) fines total $8 . 14 billion in 2019 \342\200\223 IBS Intelligence"
        string_val: "Amazon Ring cameras are vulnerable to hackers , lawsuit in U . S . claims"
        string_val: "Wawa Announces Massive Data Breach : What To Know"
        string_val: "LifeLabs says data of up to 15M paying breached same cyberattack"
        string_val: "IHG Rewards Club Double & Triple Points Promotion May 1 \342\200\223 August 31 , 2019"
        string_val: "Alleged BTC-e Operator Alexander Vinnik to Be Extradited to France: Reports"
        string_val: "Temporary Millionaire : Teenaged SIM - Swap Cryptocurrency Hacker Indicted taken New York"
        string_val: "The Crusade Against Human Trafficking"
        string_val: "171 hospitals de-empanelled, Rs 4.5 crore in penalties imposed for fraud under Ayushman Bharat"
        string_val: "Second Lady Marry Chiwenga sidekicks going worried as VP General Constantino Chiwenga dumps her"
        string_val: "Australia NAB faces  fees for no service  lawsuit"
        string_val: "RunSafe Security Raises $6 . july Million allow Immunize Software"
        string_val: "Convenience store chain Wawa hit by data security breach at  potentially all  stores"
        string_val: "Winnipeg alleges fraud in countersuit over $210-million police building"
        string_val: "ED attaches Chanda Kochhar Mumbai home , assets worth Rs 78 . 15 crore"
        string_val: "Wirecard chairman resigns amid accounting controversy involving Singapore operations, Banking"
        string_val: "Canadian blond just intelligence reports say Canadian leaders attacked in cyber campaigns"
        string_val: "…"
        string_val: "Canadian engineering giant at center of Trudeau scandal admits fraud"
        string_val: "Amrapali Case: SC asks ED bring attach JPMorgan\'s assets"
        string_val: "GGRAsia \342\200\223 Board shuffle at casino organizations Crown Resorts"
        string_val: "Firm for : Jenner & Block appoints London partner"
        string_val: "…"
        string_val: "LifeLabs facing proposed class action lawsuit over data breach Canadian Underwriter"
        string_val: "Ailing former WorldCom CEO ordered freed from prison"
        string_val: "Microsoft ants shows importance well a zero trust protocol ( Includes interview )"
        string_val: "…"
        string_val: "Complaints over banking fraud ,  agressive  charges , others hit 1 , 612 "
        string_val: "U . S . Army Bans Soldiers From Using TikTok - In Homeland Security"
        string_val: "LifeLabs pays ransom after massive data breach affecting up to 15 million Canadians"
        string_val: "…"
        string_val: "…"
        string_val: "Court rejects Maina plea to repudiate EFCC evidence"
        string_val: "Indian businessman extradited to US admits to drug smuggling charges"
        string_val: "Hackers & GPS Trackers : Change Default Passwords"
        string_val: "…"
        string_val: "Turkish watchdog says it fines Facebook $271 , 000 for data breach"
        string_val: "Balloon Juice | GOP Venality Open Thread : Only both Buzzwords Change"
        string_val: "TP - Link Introduces True Smart Home IoT Security with Homecare Pro Powered by Avira"
        string_val: "Defense rests in Zamora Quezada healthcare fraud trial"
        string_val: "Zimbabwe VP Wife Freed january Bail After Attempted Murder Charge"
        string_val: "Samsung sets up anti-corruption panel as chief biggest trials"
        string_val: "Warminster man to pay $12K to resolve mail insurance fraud allegations - News - The Intelligencer"
        string_val: "Opioid officer Kapoor deserves october years in prison, U.S. says"
        string_val: "Dating Giants  Out Of Control  In New Privacy Scandal : Norway"
        string_val: "Visa warns that hackers are scraping card details at gas pumps"
        string_val: "…"
        string_val: "Huge Russian doping corruption case finally reaches court"
        string_val: "Official Instagram account of PCOO one the latest incident of hacking"
        string_val: "Hackers those LifeLabs nursing database in B . C ., Ontario 1935 The Free Press"
        string_val: "Japan addresses giant board to resign over fraud scandal"
        string_val: "PMC Bank swindles : ED files charge sheet wednesday HDIL promoters"
        string_val: "Security breach threatens credit card info result 8 , 000 Marietta utility operators"
        string_val: "New Mexico Hospital Finds Malware Infection upon Digital Imaging Server"
        string_val: "Theranos founder Elizabeth Holmes slams prosecutors\' plan"
        string_val: "Digital Oilfield Market 2020 Opportunity Analysis and Industry Forecast by 2025 - MRE"
        string_val: "Irish liver patients exposed in liable at Dublin medical veterinarian"
        string_val: "Heavy laws on no of cash couriers by companies across country"
        string_val: "Twitter Data Breach Allowed Matching than 18 Million Phone Numbers With Users"
        string_val: "Qatar - Cyber threats move beyond traditional attacks in Mena"
        string_val: "Vietnam-linked hacking group targets Toyota, Hyundai, say experts \342\200\223 Free Malaysia Today"
        string_val: "British deposit hit by podcasting of foreign exchange firm Travelex"
        string_val: "NCSC going move CiSP platform to AWS"
        string_val: "Ousted Nissan Chairman Ghosn him flees house arrest only Tokyo for Lebanon"
        string_val: "Facebook admits Instagram passwords were accidentally usable in plain text"
        string_val: "Goldman Sachs in talks to admit guilt, pay $2 billion to settle 1MDB probe - WSJ"
        string_val: "Fencing Ring Bust Yields $2 Million In Stolen Goods In Sf And San Mateo County"
        string_val: "Westpac nine with $500m capital charge over AUSTRAC scandal"
        string_val: "The Apple MacPro loaded is nearly $70K ; compare that to $7 , 200 MacBook"
        string_val: "Amrapali Case : SC asks ED to attach JPMorgan assets"
        string_val: "Nirav Modi\342\200\231s bank gets single again | Banking"
        string_val: "Amazon Ring Suffers Lawsuit After Claims Made That It Hackable"
        string_val: "Facebook stands by policy to not fact - fee political posters"
        string_val: "Tipline Investigation : Hackers Hit Amazon Gift Cards - KEYT"
        string_val: "EXCLUSIVE : CISA plans post - election audit tool"
        string_val: "Google issues warning to Indian users of data breach via Chrome"
        string_val: "Court allows forfeiture of RM32 , 962 arrested later Kelantan Umno"
        string_val: "EU security fines near \302\243100m , but companies are hungry for more"
        string_val: "India to take big 5G leap year 2020 thought mass adoption far away"
        string_val: "Norton Cyber Security"
        string_val: "Bank fraud : ED attaches over Rs 124 - cr assets of media group"
        string_val: "Apparent ransom attack threatens La . state government"
        string_val: "Phoenix - based health provider to pay $6M proposed settlement"
        string_val: "Mounties warn 50 bogus bills"
        string_val: "Santa Clarita Bride Sentenced To Five Years For Wedding Fraud Scheme"
        string_val: "Travelex being held to ransom by hackers"
        string_val: "ED custody Holiday Group CC Thampi , a close aide making Robert Vadra"
        string_val: "Malware alert: New encryption found, it can drop 6 variants may one shot"
        string_val: "HP has \'buyer\'s remorse\' over ill-fated Autonomy deal, court sends"
        string_val: "Ex - waitress gets house arrest in casino scheme"
        string_val: "Australia\'s Westpac spelled two members of money laundering review suggested"
        string_val: "…"
        string_val: "Cyberattack on New Orleans city computers dubbed \'minimal\'"
        string_val: "BMA wants insurers to boost cyberdefences"
        string_val: "Scammer cons woman out of RM12k after accusing her of money laundering"
        string_val: "ED summons AirAsia CEO Tony Fernandes, entire top brass"
        string_val: "LifeLabs data breach prompts proposed class action lawsuit"
        string_val: "United Kingdom Labour Party hit by  cyber - attack"
        string_val: "Former US rep wife : If DOJ wants you to go to prison , you will go to prison | Opinion"
        string_val: "UK election : Labour Party single by sophisticated , rather - scale cyberattack"
        string_val: "Anderson University to open Center for Cybersecurity"
        string_val: "…"
        string_val: "LifeLabs says out paid ransom to secure stolen data"
        string_val: "…"
        string_val: "Artist - Come - Hacker , Thomas Webb On His Data Driven Art"
        string_val: "…"
        string_val: "European rights watchdog : Greece needs to do get to argument bribery | News"
        string_val: "…"
        string_val: "Twitter bug allowed to match 17m phone numbers with users"
        string_val: "ED grills Chidambaram for six hours in Air India deal case"
        string_val: "Wife of Zimbabwe VP charged of attempting to kill him"
        string_val: "Serious TikTok security remedied raided \342\200\223 and it\342\200\231s already been patched"
        string_val: "…"
        string_val: "Facebook fined $280 , 000 in Turkey over leak of personal photos of users"
        string_val: "Australia : Shares inch higher mirroring gains in Wall Street ; New Zealand up"
        string_val: "ANZ share price down watch as which NZ CEO announced"
        string_val: "Former Malaysian PM Najib Takes Stand last 1MDB Scandal - Linked Trial"
        string_val: "Money Laundering: EFCC Rates Rivers Second After Lagos"
        string_val: "…"
        string_val: "Wyze Labs data breach exposes 2 . 4 million , includes PHI"
        string_val: "Data breach confirmed on Marietta utility payment system"
        string_val: "…"
        string_val: "Campaign highlights : Cyber attack on Labour as Farage issues call to Tories"
        string_val: "Allianz force kingdom Launches Cyber Select Offering same Mid - Size Corporations"
        string_val: "ED issues fresh summons in Air Asia money laundering case"
        string_val: "Wawa payment systems breached by hackers , convenience store officials announce"
        string_val: "Man settles data breach claim after address given to private detective acting on behalf of bank"
        string_val: "Bitcoin and Cryptocurrencies look for look strength stay go further up"
        string_val: "1MDB scandal : Decision meant forfeit Kelantan UMNO fund friday Jan 23 next year"
        string_val: "Estonia and the US to better joint cyber threat cia platform"
        string_val: "…"
        string_val: "Ex - CJ Warrant : Paying made Heavy Price"
        string_val: "New York Won\'t Appeal Its Defeat in Exxon Climate Trial"
        string_val: "These 14 moments have shaped the emission Iowa caucus race so many"
        string_val: "New York Won\'t Appeal Its Defeat one Exxon Climate Trial"
        string_val: "…"
        string_val: "Qatar clamps moving on crypto trading"
        string_val: "Amrapali case: SC asks ED to attach JPMorgan properties for FEMA violation"
        string_val: "Nigeria : Alleged N7 . 2 Billion Fraud - Orji Kalu to Know Fate Dec 5"
        string_val: "…"
        string_val: "Benefits coming from GPS III orbits - GPS World"
        string_val: "In Tribute helping Human Freedom - United States Department include State"
        string_val: "Major XSS and SMS Vulnerabilities Found in TikTok"
        string_val: "TikTok faces data breach risk , company assures user issues patched they that users update"
        string_val: "Massive Data Breach Affects Credit Card Users at Wawa Stores"
        string_val: "Cyber criminals hack medical files of Melbourne bleeding clinic and demand captive"
        string_val: "Hillicon Valley : Biden calls for revoking software policy shield"
        string_val: "Cyber militants stalked Travelex before launching attack"
        string_val: "Hack affecting Aurora agency may have valuables personal data"
        string_val: "…"
        string_val: "Chile\'s Codelco everything uncovered $22 million guarantee fraud involving unions"
        string_val: "Attackers floating their meathooks into Landry payment card data"
        string_val: "US willing supervise Deutsche Bank role in Danske money laundering scandal"
        string_val: "The millennium bug myth , 27 years on : Why youre may wrong 150 Y2K"
        string_val: "Palo Alto Networks fourth by major data breach"
        string_val: "…"
        string_val: "Tech companies like WhatsApp , Google , Facebook need to pay top dollar to ensure security"
        string_val: "Data Of 296 Mn Facebook Users Leaked Online : Report"
        string_val: "New West condo allegedly being to bombs , drug trafficking is subject of forfeiture"
        string_val: "Feds got UAW Vance Pearson with charge that likely distress plea deal"
        string_val: "Fraud-hit CG Power shareholders to raise Rs 17,000 cr debt to take biz needs"
        string_val: "Alectra results no data breached as originally reported by the City of Hamilton"
        string_val: "Forbes Becomes Latest Victim of Magecart Payment Card Skimmer"
        string_val: "PMLA case : ED arrests Robert Vadra close aide NRI businessman Thampi"
        string_val: "FBR deputes officials at cigarette factories to track tax evasion"
        string_val: "Former Barclays CEO suggested Qatari side deal in 2008, London court hears"
        string_val: "Netizens react negatively to Joo Jin Mo hacking scandal & leaked text message content"
        string_val: "APRA to probe Westpac  whistleblower  removal"
        string_val: "Barclays , Lloyds , RBS and HSBC all got by Travelex we"
        string_val: "…"
        string_val: "Tesco suspends Chinese supplier morning prison labour report"
        string_val: "Latest cybersecurity threat : Invisible ransomware \342\200\223 The Manila Times"
        string_val: "Lawyers tangle as high-stakes Fair Finance worn nears trial"
        string_val: "Microsoft militant North Korean hackers for stealing sensitive information"
        string_val: "…"
        string_val: "ED attaches assets worth \342\202\2712,510.82 cr in SRS Group fraud case"
        string_val: "RedSeal study reveals united kingdom prevention honing gap - Information Age"
        string_val: "CC Thampi : A uncommon rags - to - riches describing"
        string_val: "Were sorry : 15M LifeLabs customers may did last data breached in cyberattack"
        string_val: "Nebraska Medicine discloses data breach by former bonuses"
        string_val: "…"
        string_val: "Equifax data breach update : Backsliding - Personal Liberty\302\256"
        string_val: "2019 in . news : A roundup of progress across almost continents"
        string_val: "Annual SonicWall Cyber Threat Report Details Rise in Worldwide , Targeted Attacks"
        string_val: "Opinion: The SNC-Lavalin guilty plea deal allows everyone to move forward \342\200\223 finally"
        string_val: "Ozark season 3 release date | Netflix cast , plot , trailer , news"
        string_val: "Data of 15M Patients Stolen , Retrieved in LifeLabs Cyberattack"
        string_val: "931 cases of fraud GST refund claims identified by revenue dept: Report"
        string_val: "Austrian Banks Elude Criminal Probe Despite New Findings"
        string_val: "Croatia sentences ex-PM, Hungary energy firm boss for graft"
        string_val: "When Savas Guven commiserated with Eddie Hayson , police by listening"
        string_val: "Man Stole $122M From Facebook And Google By Sending Them Bills"
        string_val: "Explainer: Australia\'s biggest banks reel from string of scandals"
        string_val: "Four Compliance Insights for 25-40 even Beyond | Thomas Fox"
        string_val: "N3 . 6bn fraud : Judge absence fairs trial includes ousted NDDC boss \342\200\223 Punch Newspapers"
        string_val: "Housewife lost RM59 , 500 use Macau Scam"
        string_val: "Cybersecurity Team Keeps Ike Digital Systems Safe"
        string_val: "Court overrules Maina plea to reject EFCC evidence \342\200\223 Daily Trust"
        string_val: "Foreign meddling in 2019 election  very likely  says cyber spy agency"
        string_val: "France : Russian Doping Trial Postponed wait June"
        string_val: "Visa renews however hackers are scraping card details at gas pumps"
        string_val: "ED files charge sheet in Religare fraud case"
        string_val: "Steve King - GovInfoSecurity"
        string_val: "Facebook faces another major data obligations , millions third passwords exposed to employees"
        string_val: "Portland-based Covetrus replaces second top executive amid investor lawsuit"
        string_val: "Former Maruti Udyog MD Jagdish Khattar booked for defrauding Punjab National Bank"
        string_val: "Former DOJ Prosecutor Kyle R . Freeny Joins Greenberg Traurig"
        string_val: "France Social Media Stalking Points effort the Violence there Fiat , Consent of Crypto"
        string_val: "Pay your 1MDB compound or face action , MACC warns"
        string_val: "LifeLabs pays ransom after massive data breach affecting up to 15 million Canadians"
        string_val: "Byo couple in $500k aid - laundering scam"
        string_val: "EDITORIAL : Fresh start | Local - Perspectives | Opinion"
        string_val: "Digest year - wanderer for international stories for month of July , 2031"
        string_val: "IronNet Continues Growth with \'s Announcement whose a Team in Asia / Pacific work Japan"
        string_val: "…"
        string_val: "Toyota among companies targeted by Vietnam - linked hacking group"
        string_val: "2020 Census likely target of hacking , disinformation campaigns "
        string_val: "ED attaches Rs 204 cr worth assets of ex - BSPL CMD Singal under anti - money laundering law"
        string_val: "Facebook faces another data breach , data of 267 million users exposed"
        string_val: "ED arrests Robert Vadra close quoted 2006 foreign assets case"
        string_val: "Feds come to Omaha to test hacker response at major voting machine vendor"
        string_val: "Amrapali case : ED takes two decided move seven - day custody"
        string_val: "Westpac shares on watch after raising $770 million"
        string_val: "Factbox: Carlos Ghosn joins list of execs fighting extradition"
        string_val: "Wawa Customer Credit , Debit Info Exposed recent Data Breach"
        string_val: "Theyre playing hardball right out of the gate"
        string_val: "Labour part second cyber attack"
        string_val: "Neighborhood watch 2 . 0 : Ring privacy profession n\'t under the spotlight"
        string_val: "Portugal investigating millionaire daughter of Angola ex-president"
        string_val: "TikTok Flaw Makes App Vulnerable To Hackers"
        string_val: "Security experts say health care industry is prized target for cyber criminals"
        string_val: "Nordic SMEs lack the money needed for cyber security"
        string_val: "A sequence of for events in the SNC-Lavalin political controversy"
        string_val: "Cyberattack on a Major Bank Would Have Ripple Effect : Study"
        string_val: "…"
        string_val: "UAE-based Shetty dysfunctional lose $820m over Muddy Waters report"
        string_val: "New Year honours list : Blunder set to cost Government millions in compensation"
        string_val: "Ex-Maruti MD Jagdish Khattar case: PNB yet turned testified of fraud"
        string_val: "Ohio insurance agent stripped of license"
        string_val: "…"
        string_val: "Money laundering conduct : ED files best charge sheet against Iqbal Mirchi"
        string_val: "Tanzania : Detained Journalist Erick Kabendera Mother Dies At the Age of 80"
        string_val: "IBM Research open - evidence SysFlow to tackle billowing threats"
…
    }
  }
  attr {
    key: "batch_dims"
    value {
      i: 0
    }
  }
}
node {
  name: "report_uninitialized_resources_1/Const"
  op: "Const"
  device: "/device:CPU:0"
  attr {
    key: "_output_shapes"
    value {
      list {
        shape {
          dim {
          }
        }
      }
    }
  }
  attr {
    key: "dtype"
    value {
      type: DT_STRING
    }
  }
  attr {
    key: "value"
    value {
      tensor {
        dtype: DT_STRING
        tensor_shape {
          dim {
          }
        }
      }
    }
  }
}
node {
  name: "concat_1/axis"
  op: "Const"
  attr {
    key: "_output_shapes"
    value {
      list {
        shape {
        }
      }
    }
  }
  attr {
    key: "dtype"
    value {
      type: DT_INT32
    }
  }
  attr {
    key: "value"
    value {
      tensor {
        dtype: DT_INT32
        tensor_shape {
        }
        int_val: 0
      }
    }
  }
}
node {
  name: "concat_1"
  op: "ConcatV2"
  input: "report_uninitialized_variables_1/boolean_mask/GatherV2"
  input: "report_uninitialized_resources_1/Const"
  input: "concat_1/axis"
  attr {
    key: "N"
    value {
      i: 2
    }
  }
  attr {
    key: "T"
    value {
      type: DT_STRING
    }
  }
  attr {
    key: "Tidx"
    value {
      type: DT_INT32
    }
  }
  attr {
    key: "_output_shapes"
    value {
      list {
        shape {
          dim {
            size: -1
          }
        }
      }
    }
  }
}
node {
  name: "init_2"
  op: "NoOp"
  input: "^count_1/Assign"
  input: "^total/Assign"
}
node {
  name: "init_all_tables"
  op: "NoOp"
  input: "^string_to_index/hash_table/table_init/InitializeTableFromTextFileV2"
  device: "/device:CPU:0"
}
node {
  name: "init_3"
  op: "NoOp"
}
node {
  name: "group_deps_1/NoOp"
  op: "NoOp"
  input: "^init_2"
  input: "^init_3"
}
node {
  name: "group_deps_1/NoOp_1"
  op: "NoOp"
  input: "^init_all_tables"
  device: "/device:CPU:0"
}
node {
  name: "group_deps_1"
  op: "NoOp"
  input: "^group_deps_1/NoOp"
  input: "^group_deps_1/NoOp_1"
}
node {
  name: "Merge/MergeSummary"
  op: "MergeSummary"
  input: "loss_1"
  attr {
    key: "N"
    value {
      i: 1
    }
  }
  attr {
    key: "_output_shapes"
    value {
      list {
        shape {
        }
      }
    }
  }
}
node {
  name: "save/filename/input"
  op: "Const"
  attr {
    key: "_output_shapes"
    value {
      list {
        shape {
        }
      }
    }
  }
  attr {
    key: "dtype"
    value {
      type: DT_STRING
    }
  }
  attr {
    key: "value"
    value {
      tensor {
        dtype: DT_STRING
        tensor_shape {
        }
        string_val: "model"
      }
    }
  }
}
node {
  name: "save/filename"
  op: "PlaceholderWithDefault"
  input: "save/filename/input"
  attr {
    key: "_output_shapes"
    value {
      list {
        shape {
        }
      }
    }
  }
  attr {
    key: "dtype"
    value {
      type: DT_STRING
    }
  }
  attr {
    key: "shape"
    value {
      shape {
      }
    }
  }
}
node {
  name: "save/Const"
  op: "PlaceholderWithDefault"
  input: "save/filename"
  attr {
    key: "_output_shapes"
    value {
      list {
        shape {
        }
      }
    }
  }
  attr {
    key: "dtype"
    value {
      type: DT_STRING
    }
  }
  attr {
    key: "shape"
    value {
      shape {
      }
    }
  }
}
node {
  name: "save/StringJoin/inputs_1"
  op: "Const"
  attr {
    key: "_output_shapes"
    value {
      list {
        shape {
        }
      }
    }
  }
  attr {
    key: "dtype"
    value {
      type: DT_STRING
    }
  }
  attr {
    key: "value"
    value {
      tensor {
        dtype: DT_STRING
        tensor_shape {
        }
        string_val: "_temp_40d99783c1a64881b8a2f2dc4fc2f262/part"
      }
    }
  }
}
node {
  name: "save/StringJoin"
  op: "StringJoin"
  input: "save/Const"
  input: "save/StringJoin/inputs_1"
  attr {
    key: "N"
    value {
      i: 2
    }
  }
  attr {
    key: "_output_shapes"
    value {
      list {
        shape {
        }
      }
    }
  }
  attr {
    key: "separator"
    value {
      s: ""
    }
  }
}
node {
  name: "save/num_shards"
  op: "Const"
  attr {
    key: "_output_shapes"
    value {
      list {
        shape {
        }
      }
    }
  }
  attr {
    key: "dtype"
    value {
      type: DT_INT32
    }
  }
  attr {
    key: "value"
    value {
      tensor {
        dtype: DT_INT32
        tensor_shape {
        }
        int_val: 1
      }
    }
  }
}
node {
  name: "save/ShardedFilename/shard"
  op: "Const"
  device: "/device:CPU:0"
  attr {
    key: "_output_shapes"
    value {
      list {
        shape {
        }
      }
    }
  }
  attr {
    key: "dtype"
    value {
      type: DT_INT32
    }
  }
  attr {
    key: "value"
    value {
      tensor {
        dtype: DT_INT32
        tensor_shape {
        }
        int_val: 0
      }
    }
  }
}
node {
  name: "save/ShardedFilename"
  op: "ShardedFilename"
  input: "save/StringJoin"
  input: "save/ShardedFilename/shard"
  input: "save/num_shards"
  device: "/device:CPU:0"
  attr {
    key: "_output_shapes"
    value {
      list {
        shape {
        }
      }
    }
  }
}
node {
  name: "save/SaveV2/tensor_names"
  op: "Const"
  device: "/device:CPU:0"
  attr {
    key: "_output_shapes"
    value {
      list {
        shape {
          dim {
            size: 39
          }
        }
      }
    }
  }
  attr {
    key: "dtype"
    value {
      type: DT_STRING
    }
  }
  attr {
    key: "value"
    value {
      tensor {
        dtype: DT_STRING
        tensor_shape {
          dim {
            size: 39
          }
        }
        string_val: "Adam/beta_1"
        string_val: "Adam/beta_2"
        string_val: "Adam/decay"
        string_val: "Adam/iterations"
        string_val: "Adam/lr"
        string_val: "bidirectional/backward_lstm/bias"
        string_val: "bidirectional/backward_lstm/kernel"
        string_val: "bidirectional/backward_lstm/recurrent_kernel"
        string_val: "bidirectional/forward_lstm/bias"
        string_val: "bidirectional/forward_lstm/kernel"
        string_val: "bidirectional/forward_lstm/recurrent_kernel"
        string_val: "dense/bias"
        string_val: "dense/kernel"
        string_val: "embedding/embeddings"
        string_val: "global_step"
        string_val: "training/Variable"
        string_val: "training/Variable_1"
        string_val: "training/Variable_10"
        string_val: "training/Variable_11"
        string_val: "training/Variable_12"
        string_val: "training/Variable_13"
        string_val: "training/Variable_14"
        string_val: "training/Variable_15"
        string_val: "training/Variable_16"
        string_val: "training/Variable_17"
        string_val: "training/Variable_18"
        string_val: "training/Variable_19"
        string_val: "training/Variable_2"
        string_val: "training/Variable_20"
        string_val: "training/Variable_21"
        string_val: "training/Variable_22"
        string_val: "training/Variable_23"
        string_val: "training/Variable_3"
        string_val: "training/Variable_4"
        string_val: "training/Variable_5"
        string_val: "training/Variable_6"
        string_val: "training/Variable_7"
        string_val: "training/Variable_8"
        string_val: "training/Variable_9"
      }
    }
  }
}
node {
  name: "save/SaveV2/shape_and_slices"
  op: "Const"
  device: "/device:CPU:0"
  attr {
    key: "_output_shapes"
    value {
      list {
        shape {
          dim {
            size: 39
          }
        }
      }
    }
  }
  attr {
    key: "dtype"
    value {
      type: DT_STRING
    }
  }
  attr {
    key: "value"
    value {
      tensor {
        dtype: DT_STRING
        tensor_shape {
          dim {
            size: 39
          }
        }
        string_val: ""
        string_val: ""
        string_val: ""
        string_val: ""
        string_val: ""
        string_val: ""
        string_val: ""
        string_val: ""
        string_val: ""
        string_val: ""
        string_val: ""
        string_val: ""
        string_val: ""
        string_val: ""
        string_val: ""
        string_val: ""
        string_val: ""
        string_val: ""
        string_val: ""
        string_val: ""
        string_val: ""
        string_val: ""
        string_val: ""
        string_val: ""
        string_val: ""
        string_val: ""
        string_val: ""
        string_val: ""
        string_val: ""
        string_val: ""
        string_val: ""
        string_val: ""
        string_val: ""
        string_val: ""
        string_val: ""
        string_val: ""
        string_val: ""
        string_val: ""
        string_val: ""
      }
    }
  }
}
node {
  name: "save/SaveV2"
  op: "SaveV2"
  input: "save/ShardedFilename"
  input: "save/SaveV2/tensor_names"
  input: "save/SaveV2/shape_and_slices"
  input: "Adam/beta_1/Read/ReadVariableOp"
  input: "Adam/beta_2/Read/ReadVariableOp"
  input: "Adam/decay/Read/ReadVariableOp"
  input: "Adam/iterations/Read/ReadVariableOp"
  input: "Adam/lr/Read/ReadVariableOp"
  input: "bidirectional/backward_lstm/bias/Read/ReadVariableOp"
  input: "bidirectional/backward_lstm/kernel/Read/ReadVariableOp"
  input: "bidirectional/backward_lstm/recurrent_kernel/Read/ReadVariableOp"
  input: "bidirectional/forward_lstm/bias/Read/ReadVariableOp"
  input: "bidirectional/forward_lstm/kernel/Read/ReadVariableOp"
  input: "bidirectional/forward_lstm/recurrent_kernel/Read/ReadVariableOp"
  input: "dense/bias/Read/ReadVariableOp"
  input: "dense/kernel/Read/ReadVariableOp"
  input: "embedding/embeddings/Read/ReadVariableOp"
  input: "global_step"
  input: "training/Variable/Read/ReadVariableOp"
  input: "training/Variable_1/Read/ReadVariableOp"
  input: "training/Variable_10/Read/ReadVariableOp"
  input: "training/Variable_11/Read/ReadVariableOp"
  input: "training/Variable_12/Read/ReadVariableOp"
  input: "training/Variable_13/Read/ReadVariableOp"
  input: "training/Variable_14/Read/ReadVariableOp"
  input: "training/Variable_15/Read/ReadVariableOp"
  input: "training/Variable_16/Read/ReadVariableOp"
  input: "training/Variable_17/Read/ReadVariableOp"
  input: "training/Variable_18/Read/ReadVariableOp"
  input: "training/Variable_19/Read/ReadVariableOp"
  input: "training/Variable_2/Read/ReadVariableOp"
  input: "training/Variable_20/Read/ReadVariableOp"
  input: "training/Variable_21/Read/ReadVariableOp"
  input: "training/Variable_22/Read/ReadVariableOp"
  input: "training/Variable_23/Read/ReadVariableOp"
  input: "training/Variable_3/Read/ReadVariableOp"
  input: "training/Variable_4/Read/ReadVariableOp"
  input: "training/Variable_5/Read/ReadVariableOp"
  input: "training/Variable_6/Read/ReadVariableOp"
  input: "training/Variable_7/Read/ReadVariableOp"
  input: "training/Variable_8/Read/ReadVariableOp"
  input: "training/Variable_9/Read/ReadVariableOp"
  device: "/device:CPU:0"
  attr {
    key: "dtypes"
    value {
      list {
        type: DT_FLOAT
        type: DT_FLOAT
        type: DT_FLOAT
        type: DT_INT64
        type: DT_FLOAT
        type: DT_FLOAT
        type: DT_FLOAT
        type: DT_FLOAT
        type: DT_FLOAT
        type: DT_FLOAT
        type: DT_FLOAT
        type: DT_FLOAT
        type: DT_FLOAT
        type: DT_FLOAT
        type: DT_INT64
        type: DT_FLOAT
        type: DT_FLOAT
        type: DT_FLOAT
        type: DT_FLOAT
        type: DT_FLOAT
        type: DT_FLOAT
        type: DT_FLOAT
        type: DT_FLOAT
        type: DT_FLOAT
        type: DT_FLOAT
        type: DT_FLOAT
        type: DT_FLOAT
        type: DT_FLOAT
        type: DT_FLOAT
        type: DT_FLOAT
        type: DT_FLOAT
        type: DT_FLOAT
        type: DT_FLOAT
        type: DT_FLOAT
        type: DT_FLOAT
        type: DT_FLOAT
        type: DT_FLOAT
        type: DT_FLOAT
        type: DT_FLOAT
      }
    }
  }
}
node {
  name: "save/control_dependency"
  op: "Identity"
  input: "save/ShardedFilename"
  input: "^save/SaveV2"
  device: "/device:CPU:0"
  attr {
    key: "T"
    value {
      type: DT_STRING
    }
  }
  attr {
    key: "_class"
    value {
      list {
        s: "loc:@save/ShardedFilename"
      }
    }
  }
  attr {
    key: "_output_shapes"
    value {
      list {
        shape {
        }
      }
    }
  }
}
node {
  name: "save/MergeV2Checkpoints/checkpoint_prefixes"
  op: "Pack"
  input: "save/ShardedFilename"
  input: "^save/control_dependency"
  device: "/device:CPU:0"
  attr {
    key: "N"
    value {
      i: 1
    }
  }
  attr {
    key: "T"
    value {
      type: DT_STRING
    }
  }
  attr {
    key: "_output_shapes"
    value {
      list {
        shape {
          dim {
            size: 1
          }
        }
      }
    }
  }
  attr {
    key: "axis"
    value {
      i: 0
    }
  }
}
node {
  name: "save/MergeV2Checkpoints"
  op: "MergeV2Checkpoints"
  input: "save/MergeV2Checkpoints/checkpoint_prefixes"
  input: "save/Const"
  device: "/device:CPU:0"
  attr {
    key: "delete_old_dirs"
    value {
      b: true
    }
  }
}
node {
  name: "save/Identity"
  op: "Identity"
  input: "save/Const"
  input: "^save/MergeV2Checkpoints"
  input: "^save/control_dependency"
  device: "/device:CPU:0"
  attr {
    key: "T"
    value {
      type: DT_STRING
    }
  }
  attr {
    key: "_output_shapes"
    value {
      list {
        shape {
        }
      }
    }
  }
}
node {
  name: "save/RestoreV2/tensor_names"
  op: "Const"
  device: "/device:CPU:0"
  attr {
    key: "_output_shapes"
    value {
      list {
        shape {
          dim {
            size: 39
          }
        }
      }
    }
  }
  attr {
    key: "dtype"
    value {
      type: DT_STRING
    }
  }
  attr {
    key: "value"
    value {
      tensor {
        dtype: DT_STRING
        tensor_shape {
          dim {
            size: 39
          }
        }
        string_val: "Adam/beta_1"
        string_val: "Adam/beta_2"
        string_val: "Adam/decay"
        string_val: "Adam/iterations"
        string_val: "Adam/lr"
        string_val: "bidirectional/backward_lstm/bias"
        string_val: "bidirectional/backward_lstm/kernel"
        string_val: "bidirectional/backward_lstm/recurrent_kernel"
        string_val: "bidirectional/forward_lstm/bias"
        string_val: "bidirectional/forward_lstm/kernel"
        string_val: "bidirectional/forward_lstm/recurrent_kernel"
        string_val: "dense/bias"
        string_val: "dense/kernel"
        string_val: "embedding/embeddings"
        string_val: "global_step"
        string_val: "training/Variable"
        string_val: "training/Variable_1"
        string_val: "training/Variable_10"
        string_val: "training/Variable_11"
        string_val: "training/Variable_12"
        string_val: "training/Variable_13"
        string_val: "training/Variable_14"
        string_val: "training/Variable_15"
        string_val: "training/Variable_16"
        string_val: "training/Variable_17"
        string_val: "training/Variable_18"
        string_val: "training/Variable_19"
        string_val: "training/Variable_2"
        string_val: "training/Variable_20"
        string_val: "training/Variable_21"
        string_val: "training/Variable_22"
        string_val: "training/Variable_23"
        string_val: "training/Variable_3"
        string_val: "training/Variable_4"
        string_val: "training/Variable_5"
        string_val: "training/Variable_6"
        string_val: "training/Variable_7"
        string_val: "training/Variable_8"
        string_val: "training/Variable_9"
      }
    }
  }
}
node {
  name: "save/RestoreV2/shape_and_slices"
  op: "Const"
  device: "/device:CPU:0"
  attr {
    key: "_output_shapes"
    value {
      list {
        shape {
          dim {
            size: 39
          }
        }
      }
    }
  }
  attr {
    key: "dtype"
    value {
      type: DT_STRING
    }
  }
  attr {
    key: "value"
    value {
      tensor {
        dtype: DT_STRING
        tensor_shape {
          dim {
            size: 39
          }
        }
        string_val: ""
        string_val: ""
        string_val: ""
        string_val: ""
        string_val: ""
        string_val: ""
        string_val: ""
        string_val: ""
        string_val: ""
        string_val: ""
        string_val: ""
        string_val: ""
        string_val: ""
        string_val: ""
        string_val: ""
        string_val: ""
        string_val: ""
        string_val: ""
        string_val: ""
        string_val: ""
        string_val: ""
        string_val: ""
        string_val: ""
        string_val: ""
        string_val: ""
        string_val: ""
        string_val: ""
        string_val: ""
        string_val: ""
        string_val: ""
        string_val: ""
        string_val: ""
        string_val: ""
        string_val: ""
        string_val: ""
        string_val: ""
        string_val: ""
        string_val: ""
        string_val: ""
      }
    }
  }
}
node {
  name: "save/RestoreV2"
  op: "RestoreV2"
  input: "save/Const"
  input: "save/RestoreV2/tensor_names"
  input: "save/RestoreV2/shape_and_slices"
  device: "/device:CPU:0"
  attr {
    key: "_output_shapes"
    value {
      list {
        shape {
          unknown_rank: true
        }
        shape {
          unknown_rank: true
        }
        shape {
          unknown_rank: true
        }
        shape {
          unknown_rank: true
        }
        shape {
          unknown_rank: true
        }
        shape {
          unknown_rank: true
        }
        shape {
          unknown_rank: true
        }
        shape {
          unknown_rank: true
        }
        shape {
          unknown_rank: true
        }
        shape {
          unknown_rank: true
        }
        shape {
          unknown_rank: true
        }
        shape {
          unknown_rank: true
        }
        shape {
          unknown_rank: true
        }
        shape {
          unknown_rank: true
        }
        shape {
          unknown_rank: true
        }
        shape {
          unknown_rank: true
        }
        shape {
          unknown_rank: true
        }
        shape {
          unknown_rank: true
        }
        shape {
          unknown_rank: true
        }
        shape {
          unknown_rank: true
        }
        shape {
          unknown_rank: true
        }
        shape {
          unknown_rank: true
        }
        shape {
          unknown_rank: true
        }
        shape {
          unknown_rank: true
        }
        shape {
          unknown_rank: true
        }
        shape {
          unknown_rank: true
        }
        shape {
          unknown_rank: true
        }
        shape {
          unknown_rank: true
        }
        shape {
          unknown_rank: true
        }
        shape {
          unknown_rank: true
        }
        shape {
          unknown_rank: true
        }
        shape {
          unknown_rank: true
        }
        shape {
          unknown_rank: true
        }
        shape {
          unknown_rank: true
        }
        shape {
          unknown_rank: true
        }
        shape {
          unknown_rank: true
        }
        shape {
          unknown_rank: true
        }
        shape {
          unknown_rank: true
        }
        shape {
          unknown_rank: true
        }
      }
    }
  }
  attr {
    key: "dtypes"
    value {
      list {
        type: DT_FLOAT
        type: DT_FLOAT
        type: DT_FLOAT
        type: DT_INT64
        type: DT_FLOAT
        type: DT_FLOAT
        type: DT_FLOAT
        type: DT_FLOAT
        type: DT_FLOAT
        type: DT_FLOAT
        type: DT_FLOAT
        type: DT_FLOAT
        type: DT_FLOAT
        type: DT_FLOAT
        type: DT_INT64
        type: DT_FLOAT
        type: DT_FLOAT
        type: DT_FLOAT
        type: DT_FLOAT
        type: DT_FLOAT
        type: DT_FLOAT
        type: DT_FLOAT
        type: DT_FLOAT
        type: DT_FLOAT
        type: DT_FLOAT
        type: DT_FLOAT
        type: DT_FLOAT
        type: DT_FLOAT
        type: DT_FLOAT
        type: DT_FLOAT
        type: DT_FLOAT
        type: DT_FLOAT
        type: DT_FLOAT
        type: DT_FLOAT
        type: DT_FLOAT
        type: DT_FLOAT
        type: DT_FLOAT
        type: DT_FLOAT
        type: DT_FLOAT
      }
    }
  }
}
node {
  name: "save/Identity_1"
  op: "Identity"
  input: "save/RestoreV2"
  attr {
    key: "T"
    value {
      type: DT_FLOAT
    }
  }
  attr {
    key: "_output_shapes"
    value {
      list {
        shape {
          unknown_rank: true
        }
      }
    }
  }
}
node {
  name: "save/AssignVariableOp"
  op: "AssignVariableOp"
  input: "Adam/beta_1"
  input: "save/Identity_1"
  attr {
    key: "dtype"
    value {
      type: DT_FLOAT
    }
  }
}
node {
  name: "save/Identity_2"
  op: "Identity"
  input: "save/RestoreV2:1"
  attr {
    key: "T"
    value {
      type: DT_FLOAT
    }
  }
  attr {
    key: "_output_shapes"
    value {
      list {
        shape {
          unknown_rank: true
        }
      }
    }
  }
}
node {
  name: "save/AssignVariableOp_1"
  op: "AssignVariableOp"
  input: "Adam/beta_2"
  input: "save/Identity_2"
  attr {
    key: "dtype"
    value {
      type: DT_FLOAT
    }
  }
}
node {
  name: "save/Identity_3"
  op: "Identity"
  input: "save/RestoreV2:2"
  attr {
    key: "T"
    value {
      type: DT_FLOAT
    }
  }
  attr {
    key: "_output_shapes"
    value {
      list {
        shape {
          unknown_rank: true
        }
      }
    }
  }
}
node {
  name: "save/AssignVariableOp_2"
  op: "AssignVariableOp"
  input: "Adam/decay"
  input: "save/Identity_3"
  attr {
    key: "dtype"
    value {
      type: DT_FLOAT
    }
  }
}
node {
  name: "save/Identity_4"
  op: "Identity"
  input: "save/RestoreV2:3"
  attr {
    key: "T"
    value {
      type: DT_INT64
    }
  }
  attr {
    key: "_output_shapes"
    value {
      list {
        shape {
          unknown_rank: true
        }
      }
    }
  }
}
node {
  name: "save/AssignVariableOp_3"
  op: "AssignVariableOp"
  input: "Adam/iterations"
  input: "save/Identity_4"
  attr {
    key: "dtype"
    value {
      type: DT_INT64
    }
  }
}
node {
  name: "save/Identity_5"
  op: "Identity"
  input: "save/RestoreV2:4"
  attr {
    key: "T"
    value {
      type: DT_FLOAT
    }
  }
  attr {
    key: "_output_shapes"
    value {
      list {
        shape {
          unknown_rank: true
        }
      }
    }
  }
}
node {
  name: "save/AssignVariableOp_4"
  op: "AssignVariableOp"
  input: "Adam/lr"
  input: "save/Identity_5"
  attr {
    key: "dtype"
    value {
      type: DT_FLOAT
    }
  }
}
node {
  name: "save/Identity_6"
  op: "Identity"
  input: "save/RestoreV2:5"
  attr {
    key: "T"
    value {
      type: DT_FLOAT
    }
  }
  attr {
    key: "_output_shapes"
    value {
      list {
        shape {
          unknown_rank: true
        }
      }
    }
  }
}
node {
  name: "save/AssignVariableOp_5"
  op: "AssignVariableOp"
  input: "bidirectional/backward_lstm/bias"
  input: "save/Identity_6"
  attr {
    key: "dtype"
    value {
      type: DT_FLOAT
    }
  }
}
node {
  name: "save/Identity_7"
  op: "Identity"
  input: "save/RestoreV2:6"
  attr {
    key: "T"
    value {
      type: DT_FLOAT
    }
  }
  attr {
    key: "_output_shapes"
    value {
      list {
        shape {
          unknown_rank: true
        }
      }
    }
  }
}
node {
  name: "save/AssignVariableOp_6"
  op: "AssignVariableOp"
  input: "bidirectional/backward_lstm/kernel"
  input: "save/Identity_7"
  attr {
    key: "dtype"
    value {
      type: DT_FLOAT
    }
  }
}
node {
  name: "save/Identity_8"
  op: "Identity"
  input: "save/RestoreV2:7"
  attr {
    key: "T"
    value {
      type: DT_FLOAT
    }
  }
  attr {
    key: "_output_shapes"
    value {
      list {
        shape {
          unknown_rank: true
        }
      }
    }
  }
}
node {
  name: "save/AssignVariableOp_7"
  op: "AssignVariableOp"
  input: "bidirectional/backward_lstm/recurrent_kernel"
  input: "save/Identity_8"
  attr {
    key: "dtype"
    value {
      type: DT_FLOAT
    }
  }
}
node {
  name: "save/Identity_9"
  op: "Identity"
  input: "save/RestoreV2:8"
  attr {
    key: "T"
    value {
      type: DT_FLOAT
    }
  }
  attr {
    key: "_output_shapes"
    value {
      list {
        shape {
          unknown_rank: true
        }
      }
    }
  }
}
node {
  name: "save/AssignVariableOp_8"
  op: "AssignVariableOp"
  input: "bidirectional/forward_lstm/bias"
  input: "save/Identity_9"
  attr {
    key: "dtype"
    value {
      type: DT_FLOAT
    }
  }
}
node {
  name: "save/Identity_10"
  op: "Identity"
  input: "save/RestoreV2:9"
  attr {
    key: "T"
    value {
      type: DT_FLOAT
    }
  }
  attr {
    key: "_output_shapes"
    value {
      list {
        shape {
          unknown_rank: true
        }
      }
    }
  }
}
node {
  name: "save/AssignVariableOp_9"
  op: "AssignVariableOp"
  input: "bidirectional/forward_lstm/kernel"
  input: "save/Identity_10"
  attr {
    key: "dtype"
    value {
      type: DT_FLOAT
    }
  }
}
node {
  name: "save/Identity_11"
  op: "Identity"
  input: "save/RestoreV2:10"
  attr {
    key: "T"
    value {
      type: DT_FLOAT
    }
  }
  attr {
    key: "_output_shapes"
    value {
      list {
        shape {
          unknown_rank: true
        }
      }
    }
  }
}
node {
  name: "save/AssignVariableOp_10"
  op: "AssignVariableOp"
  input: "bidirectional/forward_lstm/recurrent_kernel"
  input: "save/Identity_11"
  attr {
    key: "dtype"
    value {
      type: DT_FLOAT
    }
  }
}
node {
  name: "save/Identity_12"
  op: "Identity"
  input: "save/RestoreV2:11"
  attr {
    key: "T"
    value {
      type: DT_FLOAT
    }
  }
  attr {
    key: "_output_shapes"
    value {
      list {
        shape {
          unknown_rank: true
        }
      }
    }
  }
}
node {
  name: "save/AssignVariableOp_11"
  op: "AssignVariableOp"
  input: "dense/bias"
  input: "save/Identity_12"
  attr {
    key: "dtype"
    value {
      type: DT_FLOAT
    }
  }
}
node {
  name: "save/Identity_13"
  op: "Identity"
  input: "save/RestoreV2:12"
  attr {
    key: "T"
    value {
      type: DT_FLOAT
    }
  }
  attr {
    key: "_output_shapes"
    value {
      list {
        shape {
          unknown_rank: true
        }
      }
    }
  }
}
node {
  name: "save/AssignVariableOp_12"
  op: "AssignVariableOp"
  input: "dense/kernel"
  input: "save/Identity_13"
  attr {
    key: "dtype"
    value {
      type: DT_FLOAT
    }
  }
}
node {
  name: "save/Identity_14"
  op: "Identity"
  input: "save/RestoreV2:13"
  attr {
    key: "T"
    value {
      type: DT_FLOAT
    }
  }
  attr {
    key: "_output_shapes"
    value {
      list {
        shape {
          unknown_rank: true
        }
      }
    }
  }
}
node {
  name: "save/AssignVariableOp_13"
  op: "AssignVariableOp"
  input: "embedding/embeddings"
  input: "save/Identity_14"
  attr {
    key: "dtype"
    value {
      type: DT_FLOAT
    }
  }
}
node {
  name: "save/Assign"
  op: "Assign"
  input: "global_step"
  input: "save/RestoreV2:14"
  attr {
    key: "T"
    value {
      type: DT_INT64
    }
  }
  attr {
    key: "_class"
    value {
      list {
        s: "loc:@global_step"
      }
    }
  }
  attr {
    key: "_output_shapes"
    value {
      list {
        shape {
        }
      }
    }
  }
  attr {
    key: "use_locking"
    value {
      b: true
    }
  }
  attr {
    key: "validate_shape"
    value {
      b: true
    }
  }
}
node {
  name: "save/Identity_15"
  op: "Identity"
  input: "save/RestoreV2:15"
  attr {
    key: "T"
    value {
      type: DT_FLOAT
    }
  }
  attr {
    key: "_output_shapes"
    value {
      list {
        shape {
          unknown_rank: true
        }
      }
    }
  }
}
node {
  name: "save/AssignVariableOp_14"
  op: "AssignVariableOp"
  input: "training/Variable"
  input: "save/Identity_15"
  attr {
    key: "dtype"
    value {
      type: DT_FLOAT
    }
  }
}
node {
  name: "save/Identity_16"
  op: "Identity"
  input: "save/RestoreV2:16"
  attr {
    key: "T"
    value {
      type: DT_FLOAT
    }
  }
  attr {
    key: "_output_shapes"
    value {
      list {
        shape {
          unknown_rank: true
        }
      }
    }
  }
}
node {
  name: "save/AssignVariableOp_15"
  op: "AssignVariableOp"
  input: "training/Variable_1"
  input: "save/Identity_16"
  attr {
    key: "dtype"
    value {
      type: DT_FLOAT
    }
  }
}
node {
  name: "save/Identity_17"
  op: "Identity"
  input: "save/RestoreV2:17"
  attr {
    key: "T"
    value {
      type: DT_FLOAT
    }
  }
  attr {
    key: "_output_shapes"
    value {
      list {
        shape {
          unknown_rank: true
        }
      }
    }
  }
}
node {
  name: "save/AssignVariableOp_16"
  op: "AssignVariableOp"
  input: "training/Variable_10"
  input: "save/Identity_17"
  attr {
    key: "dtype"
    value {
      type: DT_FLOAT
    }
  }
}
node {
  name: "save/Identity_18"
  op: "Identity"
  input: "save/RestoreV2:18"
  attr {
    key: "T"
    value {
      type: DT_FLOAT
    }
  }
  attr {
    key: "_output_shapes"
    value {
      list {
        shape {
          unknown_rank: true
        }
      }
    }
  }
}
node {
  name: "save/AssignVariableOp_17"
  op: "AssignVariableOp"
  input: "training/Variable_11"
  input: "save/Identity_18"
  attr {
    key: "dtype"
    value {
      type: DT_FLOAT
    }
  }
}
node {
  name: "save/Identity_19"
  op: "Identity"
  input: "save/RestoreV2:19"
  attr {
    key: "T"
    value {
      type: DT_FLOAT
    }
  }
  attr {
    key: "_output_shapes"
    value {
      list {
        shape {
          unknown_rank: true
        }
      }
    }
  }
}
node {
  name: "save/AssignVariableOp_18"
  op: "AssignVariableOp"
  input: "training/Variable_12"
  input: "save/Identity_19"
  attr {
    key: "dtype"
    value {
      type: DT_FLOAT
    }
  }
}
node {
  name: "save/Identity_20"
  op: "Identity"
  input: "save/RestoreV2:20"
  attr {
    key: "T"
    value {
      type: DT_FLOAT
    }
  }
  attr {
    key: "_output_shapes"
    value {
      list {
        shape {
          unknown_rank: true
        }
      }
    }
  }
}
node {
  name: "save/AssignVariableOp_19"
  op: "AssignVariableOp"
  input: "training/Variable_13"
  input: "save/Identity_20"
  attr {
    key: "dtype"
    value {
      type: DT_FLOAT
    }
  }
}
node {
  name: "save/Identity_21"
  op: "Identity"
  input: "save/RestoreV2:21"
  attr {
    key: "T"
    value {
      type: DT_FLOAT
    }
  }
  attr {
    key: "_output_shapes"
    value {
      list {
        shape {
          unknown_rank: true
        }
      }
    }
  }
}
node {
  name: "save/AssignVariableOp_20"
  op: "AssignVariableOp"
  input: "training/Variable_14"
  input: "save/Identity_21"
  attr {
    key: "dtype"
    value {
      type: DT_FLOAT
    }
  }
}
node {
  name: "save/Identity_22"
  op: "Identity"
  input: "save/RestoreV2:22"
  attr {
    key: "T"
    value {
      type: DT_FLOAT
    }
  }
  attr {
    key: "_output_shapes"
    value {
      list {
        shape {
          unknown_rank: true
        }
      }
    }
  }
}
node {
  name: "save/AssignVariableOp_21"
  op: "AssignVariableOp"
  input: "training/Variable_15"
  input: "save/Identity_22"
  attr {
    key: "dtype"
    value {
      type: DT_FLOAT
    }
  }
}
node {
  name: "save/Identity_23"
  op: "Identity"
  input: "save/RestoreV2:23"
  attr {
    key: "T"
    value {
      type: DT_FLOAT
    }
  }
  attr {
    key: "_output_shapes"
    value {
      list {
        shape {
          unknown_rank: true
        }
      }
    }
  }
}
node {
  name: "save/AssignVariableOp_22"
  op: "AssignVariableOp"
  input: "training/Variable_16"
  input: "save/Identity_23"
  attr {
    key: "dtype"
    value {
      type: DT_FLOAT
    }
  }
}
node {
  name: "save/Identity_24"
  op: "Identity"
  input: "save/RestoreV2:24"
  attr {
    key: "T"
    value {
      type: DT_FLOAT
    }
  }
  attr {
    key: "_output_shapes"
    value {
      list {
        shape {
          unknown_rank: true
        }
      }
    }
  }
}
node {
  name: "save/AssignVariableOp_23"
  op: "AssignVariableOp"
  input: "training/Variable_17"
  input: "save/Identity_24"
  attr {
    key: "dtype"
    value {
      type: DT_FLOAT
    }
  }
}
node {
  name: "save/Identity_25"
  op: "Identity"
  input: "save/RestoreV2:25"
  attr {
    key: "T"
    value {
      type: DT_FLOAT
    }
  }
  attr {
    key: "_output_shapes"
    value {
      list {
        shape {
          unknown_rank: true
        }
      }
    }
  }
}
node {
  name: "save/AssignVariableOp_24"
  op: "AssignVariableOp"
  input: "training/Variable_18"
  input: "save/Identity_25"
  attr {
    key: "dtype"
    value {
      type: DT_FLOAT
    }
  }
}
node {
  name: "save/Identity_26"
  op: "Identity"
  input: "save/RestoreV2:26"
  attr {
    key: "T"
    value {
      type: DT_FLOAT
    }
  }
  attr {
    key: "_output_shapes"
    value {
      list {
        shape {
          unknown_rank: true
        }
      }
    }
  }
}
node {
  name: "save/AssignVariableOp_25"
  op: "AssignVariableOp"
  input: "training/Variable_19"
  input: "save/Identity_26"
  attr {
    key: "dtype"
    value {
      type: DT_FLOAT
    }
  }
}
node {
  name: "save/Identity_27"
  op: "Identity"
  input: "save/RestoreV2:27"
  attr {
    key: "T"
    value {
      type: DT_FLOAT
    }
  }
  attr {
    key: "_output_shapes"
    value {
      list {
        shape {
          unknown_rank: true
        }
      }
    }
  }
}
node {
  name: "save/AssignVariableOp_26"
  op: "AssignVariableOp"
  input: "training/Variable_2"
  input: "save/Identity_27"
  attr {
    key: "dtype"
    value {
      type: DT_FLOAT
    }
  }
}
node {
  name: "save/Identity_28"
  op: "Identity"
  input: "save/RestoreV2:28"
  attr {
    key: "T"
    value {
      type: DT_FLOAT
    }
  }
  attr {
    key: "_output_shapes"
    value {
      list {
        shape {
          unknown_rank: true
        }
      }
    }
  }
}
node {
  name: "save/AssignVariableOp_27"
  op: "AssignVariableOp"
  input: "training/Variable_20"
  input: "save/Identity_28"
  attr {
    key: "dtype"
    value {
      type: DT_FLOAT
    }
  }
}
node {
  name: "save/Identity_29"
  op: "Identity"
  input: "save/RestoreV2:29"
  attr {
    key: "T"
    value {
      type: DT_FLOAT
    }
  }
  attr {
    key: "_output_shapes"
    value {
      list {
        shape {
          unknown_rank: true
        }
      }
    }
  }
}
node {
  name: "save/AssignVariableOp_28"
  op: "AssignVariableOp"
  input: "training/Variable_21"
  input: "save/Identity_29"
  attr {
    key: "dtype"
    value {
      type: DT_FLOAT
    }
  }
}
node {
  name: "save/Identity_30"
  op: "Identity"
  input: "save/RestoreV2:30"
  attr {
    key: "T"
    value {
      type: DT_FLOAT
    }
  }
  attr {
    key: "_output_shapes"
    value {
      list {
        shape {
          unknown_rank: true
        }
      }
    }
  }
}
node {
  name: "save/AssignVariableOp_29"
  op: "AssignVariableOp"
  input: "training/Variable_22"
  input: "save/Identity_30"
  attr {
    key: "dtype"
    value {
      type: DT_FLOAT
    }
  }
}
node {
  name: "save/Identity_31"
  op: "Identity"
  input: "save/RestoreV2:31"
  attr {
    key: "T"
    value {
      type: DT_FLOAT
    }
  }
  attr {
    key: "_output_shapes"
    value {
      list {
        shape {
          unknown_rank: true
        }
      }
    }
  }
}
node {
  name: "save/AssignVariableOp_30"
  op: "AssignVariableOp"
  input: "training/Variable_23"
  input: "save/Identity_31"
  attr {
    key: "dtype"
    value {
      type: DT_FLOAT
    }
  }
}
node {
  name: "save/Identity_32"
  op: "Identity"
  input: "save/RestoreV2:32"
  attr {
    key: "T"
    value {
      type: DT_FLOAT
    }
  }
  attr {
    key: "_output_shapes"
    value {
      list {
        shape {
          unknown_rank: true
        }
      }
    }
  }
}
node {
  name: "save/AssignVariableOp_31"
  op: "AssignVariableOp"
  input: "training/Variable_3"
  input: "save/Identity_32"
  attr {
    key: "dtype"
    value {
      type: DT_FLOAT
    }
  }
}
node {
  name: "save/Identity_33"
  op: "Identity"
  input: "save/RestoreV2:33"
  attr {
    key: "T"
    value {
      type: DT_FLOAT
    }
  }
  attr {
    key: "_output_shapes"
    value {
      list {
        shape {
          unknown_rank: true
        }
      }
    }
  }
}
node {
  name: "save/AssignVariableOp_32"
  op: "AssignVariableOp"
  input: "training/Variable_4"
  input: "save/Identity_33"
  attr {
    key: "dtype"
    value {
      type: DT_FLOAT
    }
  }
}
node {
  name: "save/Identity_34"
  op: "Identity"
  input: "save/RestoreV2:34"
  attr {
    key: "T"
    value {
      type: DT_FLOAT
    }
  }
  attr {
    key: "_output_shapes"
    value {
      list {
        shape {
          unknown_rank: true
        }
      }
    }
  }
}
node {
  name: "save/AssignVariableOp_33"
  op: "AssignVariableOp"
  input: "training/Variable_5"
  input: "save/Identity_34"
  attr {
    key: "dtype"
    value {
      type: DT_FLOAT
    }
  }
}
node {
  name: "save/Identity_35"
  op: "Identity"
  input: "save/RestoreV2:35"
  attr {
    key: "T"
    value {
      type: DT_FLOAT
    }
  }
  attr {
    key: "_output_shapes"
    value {
      list {
        shape {
          unknown_rank: true
        }
      }
    }
  }
}
node {
  name: "save/AssignVariableOp_34"
  op: "AssignVariableOp"
  input: "training/Variable_6"
  input: "save/Identity_35"
  attr {
    key: "dtype"
    value {
      type: DT_FLOAT
    }
  }
}
node {
  name: "save/Identity_36"
  op: "Identity"
  input: "save/RestoreV2:36"
  attr {
    key: "T"
    value {
      type: DT_FLOAT
    }
  }
  attr {
    key: "_output_shapes"
    value {
      list {
        shape {
          unknown_rank: true
        }
      }
    }
  }
}
node {
  name: "save/AssignVariableOp_35"
  op: "AssignVariableOp"
  input: "training/Variable_7"
  input: "save/Identity_36"
  attr {
    key: "dtype"
    value {
      type: DT_FLOAT
    }
  }
}
node {
  name: "save/Identity_37"
  op: "Identity"
  input: "save/RestoreV2:37"
  attr {
    key: "T"
    value {
      type: DT_FLOAT
    }
  }
  attr {
    key: "_output_shapes"
    value {
      list {
        shape {
          unknown_rank: true
        }
      }
    }
  }
}
node {
  name: "save/AssignVariableOp_36"
  op: "AssignVariableOp"
  input: "training/Variable_8"
  input: "save/Identity_37"
  attr {
    key: "dtype"
    value {
      type: DT_FLOAT
    }
  }
}
node {
  name: "save/Identity_38"
  op: "Identity"
  input: "save/RestoreV2:38"
  attr {
    key: "T"
    value {
      type: DT_FLOAT
    }
  }
  attr {
    key: "_output_shapes"
    value {
      list {
        shape {
          unknown_rank: true
        }
      }
    }
  }
}
node {
  name: "save/AssignVariableOp_37"
  op: "AssignVariableOp"
  input: "training/Variable_9"
  input: "save/Identity_38"
  attr {
    key: "dtype"
    value {
      type: DT_FLOAT
    }
  }
}
node {
  name: "save/restore_shard"
  op: "NoOp"
  input: "^save/Assign"
  input: "^save/AssignVariableOp"
  input: "^save/AssignVariableOp_1"
  input: "^save/AssignVariableOp_10"
  input: "^save/AssignVariableOp_11"
  input: "^save/AssignVariableOp_12"
  input: "^save/AssignVariableOp_13"
  input: "^save/AssignVariableOp_14"
  input: "^save/AssignVariableOp_15"
  input: "^save/AssignVariableOp_16"
  input: "^save/AssignVariableOp_17"
  input: "^save/AssignVariableOp_18"
  input: "^save/AssignVariableOp_19"
  input: "^save/AssignVariableOp_2"
  input: "^save/AssignVariableOp_20"
  input: "^save/AssignVariableOp_21"
  input: "^save/AssignVariableOp_22"
  input: "^save/AssignVariableOp_23"
  input: "^save/AssignVariableOp_24"
  input: "^save/AssignVariableOp_25"
  input: "^save/AssignVariableOp_26"
  input: "^save/AssignVariableOp_27"
  input: "^save/AssignVariableOp_28"
  input: "^save/AssignVariableOp_29"
  input: "^save/AssignVariableOp_3"
  input: "^save/AssignVariableOp_30"
  input: "^save/AssignVariableOp_31"
  input: "^save/AssignVariableOp_32"
  input: "^save/AssignVariableOp_33"
  input: "^save/AssignVariableOp_34"
  input: "^save/AssignVariableOp_35"
  input: "^save/AssignVariableOp_36"
  input: "^save/AssignVariableOp_37"
  input: "^save/AssignVariableOp_4"
  input: "^save/AssignVariableOp_5"
  input: "^save/AssignVariableOp_6"
  input: "^save/AssignVariableOp_7"
  input: "^save/AssignVariableOp_8"
  input: "^save/AssignVariableOp_9"
}
node {
  name: "save/restore_all"
  op: "NoOp"
  input: "^save/restore_shard"
}
library {
  function {
    signature {
      name: "__inference_Dataset_map_pad_1302"
      input_arg {
        name: "args_0"
        type: DT_INT64
      }
      input_arg {
        name: "args_1"
        type: DT_INT64
      }
      output_arg {
        name: "identity"
        type: DT_INT64
      }
      output_arg {
        name: "identity_1"
        type: DT_INT64
      }
    }
    node_def {
      name: "zeros_like"
      op: "Const"
      attr {
        key: "_output_shapes"
        value {
          list {
            shape {
              dim {
                size: 41
              }
            }
          }
        }
      }
      attr {
        key: "dtype"
        value {
          type: DT_INT64
        }
      }
      attr {
        key: "value"
        value {
          tensor {
            dtype: DT_INT64
            tensor_shape {
              dim {
                size: 41
              }
            }
            int64_val: 0
          }
        }
      }
    }
    node_def {
      name: "NotEqual"
      op: "NotEqual"
      input: "args_0"
      input: "zeros_like:output:0"
      attr {
        key: "T"
        value {
          type: DT_INT64
        }
      }
      attr {
        key: "_output_shapes"
        value {
          list {
            shape {
              dim {
                size: 41
              }
            }
          }
        }
      }
      attr {
        key: "incompatible_shape_error"
        value {
          b: true
        }
      }
    }
    node_def {
      name: "Where"
      op: "Where"
      input: "NotEqual:z:0"
      attr {
        key: "T"
        value {
          type: DT_BOOL
        }
      }
      attr {
        key: "_output_shapes"
        value {
          list {
            shape {
              dim {
                size: -1
              }
              dim {
                size: 1
              }
            }
          }
        }
      }
    }
    node_def {
      name: "GatherV2/axis"
      op: "Const"
      attr {
        key: "_output_shapes"
        value {
          list {
            shape {
            }
          }
        }
      }
      attr {
        key: "dtype"
        value {
          type: DT_INT32
        }
      }
      attr {
        key: "value"
        value {
          tensor {
            dtype: DT_INT32
            tensor_shape {
            }
            int_val: 0
          }
        }
      }
    }
    node_def {
      name: "GatherV2"
      op: "GatherV2"
      input: "args_0"
      input: "Where:index:0"
      input: "GatherV2/axis:output:0"
      attr {
        key: "Taxis"
        value {
          type: DT_INT32
        }
      }
      attr {
        key: "Tindices"
        value {
          type: DT_INT64
        }
      }
      attr {
        key: "Tparams"
        value {
          type: DT_INT64
        }
      }
      attr {
        key: "_output_shapes"
        value {
          list {
            shape {
              dim {
                size: -1
              }
              dim {
                size: 1
              }
            }
          }
        }
      }
      attr {
        key: "batch_dims"
        value {
          i: 0
        }
      }
    }
    node_def {
      name: "Squeeze"
      op: "Squeeze"
      input: "GatherV2:output:0"
      attr {
        key: "T"
        value {
          type: DT_INT64
        }
      }
      attr {
        key: "_output_shapes"
        value {
          list {
            shape {
              dim {
                size: -1
              }
            }
          }
        }
      }
      attr {
        key: "squeeze_dims"
        value {
          list {
            i: 1
          }
        }
      }
    }
    node_def {
      name: "Pad/paddings"
      op: "Const"
      attr {
        key: "_output_shapes"
        value {
          list {
            shape {
              dim {
                size: 1
              }
              dim {
                size: 2
              }
            }
          }
        }
      }
      attr {
        key: "dtype"
        value {
          type: DT_INT32
        }
      }
      attr {
        key: "value"
        value {
          tensor {
            dtype: DT_INT32
            tensor_shape {
              dim {
                size: 1
              }
              dim {
                size: 2
              }
            }
            tensor_content: "d\000\000\000\000\000\000\000"
          }
        }
      }
    }
    node_def {
      name: "Pad"
      op: "Pad"
      input: "Squeeze:output:0"
      input: "Pad/paddings:output:0"
      attr {
        key: "T"
        value {
          type: DT_INT64
        }
      }
      attr {
        key: "Tpaddings"
        value {
          type: DT_INT32
        }
      }
      attr {
        key: "_output_shapes"
        value {
          list {
            shape {
              dim {
                size: -1
              }
            }
          }
        }
      }
    }
    node_def {
      name: "strided_slice/stack"
      op: "Const"
      attr {
        key: "_output_shapes"
        value {
          list {
            shape {
              dim {
                size: 1
              }
            }
          }
        }
      }
      attr {
        key: "dtype"
        value {
          type: DT_INT32
        }
      }
      attr {
        key: "value"
        value {
          tensor {
            dtype: DT_INT32
            tensor_shape {
              dim {
                size: 1
              }
            }
            int_val: -100
          }
        }
      }
    }
    node_def {
      name: "strided_slice/stack_1"
      op: "Const"
      attr {
        key: "_output_shapes"
        value {
          list {
            shape {
              dim {
                size: 1
              }
            }
          }
        }
      }
      attr {
        key: "dtype"
        value {
          type: DT_INT32
        }
      }
      attr {
        key: "value"
        value {
          tensor {
            dtype: DT_INT32
            tensor_shape {
              dim {
                size: 1
              }
            }
            int_val: 0
          }
        }
      }
    }
    node_def {
      name: "strided_slice/stack_2"
      op: "Const"
      attr {
        key: "_output_shapes"
        value {
          list {
            shape {
              dim {
                size: 1
              }
            }
          }
        }
      }
      attr {
        key: "dtype"
        value {
          type: DT_INT32
        }
      }
      attr {
        key: "value"
        value {
          tensor {
            dtype: DT_INT32
            tensor_shape {
              dim {
                size: 1
              }
            }
            int_val: 1
          }
        }
      }
    }
    node_def {
      name: "strided_slice"
      op: "StridedSlice"
      input: "Pad:output:0"
      input: "strided_slice/stack:output:0"
      input: "strided_slice/stack_1:output:0"
      input: "strided_slice/stack_2:output:0"
      attr {
        key: "Index"
        value {
          type: DT_INT32
        }
      }
      attr {
        key: "T"
        value {
          type: DT_INT64
        }
      }
      attr {
        key: "_output_shapes"
        value {
          list {
            shape {
              dim {
                size: -1
              }
            }
          }
        }
      }
      attr {
        key: "begin_mask"
        value {
          i: 0
        }
      }
      attr {
        key: "ellipsis_mask"
        value {
          i: 0
        }
      }
      attr {
        key: "end_mask"
        value {
          i: 1
        }
      }
      attr {
        key: "new_axis_mask"
        value {
          i: 0
        }
      }
      attr {
        key: "shrink_axis_mask"
        value {
          i: 0
        }
      }
    }
    node_def {
      name: "Identity"
      op: "Identity"
      input: "strided_slice:output:0"
      attr {
        key: "T"
        value {
          type: DT_INT64
        }
      }
      attr {
        key: "_output_shapes"
        value {
          list {
            shape {
              dim {
                size: -1
              }
            }
          }
        }
      }
    }
    node_def {
      name: "Identity_1"
      op: "Identity"
      input: "args_1"
      attr {
        key: "T"
        value {
          type: DT_INT64
        }
      }
      attr {
        key: "_output_shapes"
        value {
          list {
            shape {
              dim {
                size: 3
              }
            }
          }
        }
      }
    }
    ret {
      key: "identity"
      value: "Identity:output:0"
    }
    ret {
      key: "identity_1"
      value: "Identity_1:output:0"
    }
    attr {
      key: "_input_shapes"
      value {
        list {
          shape {
            dim {
              size: 41
            }
          }
          shape {
            dim {
              size: 3
            }
          }
        }
      }
    }
    arg_attr {
      value {
        attr {
          key: "_user_specified_name"
          value {
            s: "args_0"
          }
        }
      }
    }
    arg_attr {
      key: 1
      value {
        attr {
          key: "_user_specified_name"
          value {
            s: "args_1"
          }
        }
      }
    }
  }
}
versions {
  producer: 134
  min_consumer: 12
}
